<?xml version="1.0" ?>
<net name="elg_onnx_tf2onnx_bilinear_ir" version="10">
	<layers>
		<layer id="0" name="input_1:0" type="Parameter" version="opset1">
			<data element_type="f16" shape="2,108,180,1"/>
			<output>
				<port id="0" precision="FP16">
					<dim>2</dim>
					<dim>108</dim>
					<dim>180</dim>
					<dim>1</dim>
				</port>
			</output>
		</layer>
		<layer id="1" name="hourglass_pre/BiasAdd__6/Cast_140519_const" type="Const" version="opset1">
			<data element_type="i64" offset="0" shape="4" size="32"/>
			<output>
				<port id="1" precision="I64">
					<dim>4</dim>
				</port>
			</output>
		</layer>
		<layer id="2" name="hourglass_pre/BiasAdd__6" type="Reshape" version="opset1">
			<data special_zero="True"/>
			<input>
				<port id="0">
					<dim>2</dim>
					<dim>108</dim>
					<dim>180</dim>
					<dim>1</dim>
				</port>
				<port id="1">
					<dim>4</dim>
				</port>
			</input>
			<output>
				<port id="2" precision="FP16">
					<dim>2</dim>
					<dim>1</dim>
					<dim>108</dim>
					<dim>180</dim>
				</port>
			</output>
		</layer>
		<layer id="3" name="hourglass_pre/BiasAdd_weights_fused_bn/Output_0/Data__const" type="Const" version="opset1">
			<data element_type="f16" offset="32" shape="64,1,7,7" size="6272"/>
			<output>
				<port id="1" precision="FP16">
					<dim>64</dim>
					<dim>1</dim>
					<dim>7</dim>
					<dim>7</dim>
				</port>
			</output>
		</layer>
		<layer id="4" name="hourglass_pre/BiasAdd/WithoutBiases" type="Convolution" version="opset1">
			<data dilations="1,1" output_padding="0,0" pads_begin="2,2" pads_end="2,2" strides="3,3"/>
			<input>
				<port id="0">
					<dim>2</dim>
					<dim>1</dim>
					<dim>108</dim>
					<dim>180</dim>
				</port>
				<port id="1">
					<dim>64</dim>
					<dim>1</dim>
					<dim>7</dim>
					<dim>7</dim>
				</port>
			</input>
			<output>
				<port id="2" precision="FP16">
					<dim>2</dim>
					<dim>64</dim>
					<dim>36</dim>
					<dim>60</dim>
				</port>
			</output>
		</layer>
		<layer id="5" name="hourglass_pre/BiasAdd/Dims1007718545/EltwiseUnsqueeze18989_const" type="Const" version="opset1">
			<data element_type="f16" offset="6304" shape="1,64,1,1" size="128"/>
			<output>
				<port id="1" precision="FP16">
					<dim>1</dim>
					<dim>64</dim>
					<dim>1</dim>
					<dim>1</dim>
				</port>
			</output>
		</layer>
		<layer id="6" name="hourglass_pre/BiasAdd" type="Add" version="opset1">
			<input>
				<port id="0">
					<dim>2</dim>
					<dim>64</dim>
					<dim>36</dim>
					<dim>60</dim>
				</port>
				<port id="1">
					<dim>1</dim>
					<dim>64</dim>
					<dim>1</dim>
					<dim>1</dim>
				</port>
			</input>
			<output>
				<port id="2" precision="FP16">
					<dim>2</dim>
					<dim>64</dim>
					<dim>36</dim>
					<dim>60</dim>
				</port>
			</output>
		</layer>
		<layer id="7" name="activation_1/Relu" type="ReLU" version="opset1">
			<input>
				<port id="0">
					<dim>2</dim>
					<dim>64</dim>
					<dim>36</dim>
					<dim>60</dim>
				</port>
			</input>
			<output>
				<port id="1" precision="FP16">
					<dim>2</dim>
					<dim>64</dim>
					<dim>36</dim>
					<dim>60</dim>
				</port>
			</output>
		</layer>
		<layer id="8" name="data_mul_1788618666/EltwiseUnsqueeze19329_const" type="Const" version="opset1">
			<data element_type="f16" offset="6432" shape="1,64,1,1" size="128"/>
			<output>
				<port id="1" precision="FP16">
					<dim>1</dim>
					<dim>64</dim>
					<dim>1</dim>
					<dim>1</dim>
				</port>
			</output>
		</layer>
		<layer id="9" name="hourglass_pre_res1_conv1_BatchNorm/FusedBatchNormV3/mean/Fused_Mul_" type="Multiply" version="opset1">
			<input>
				<port id="0">
					<dim>2</dim>
					<dim>64</dim>
					<dim>36</dim>
					<dim>60</dim>
				</port>
				<port id="1">
					<dim>1</dim>
					<dim>64</dim>
					<dim>1</dim>
					<dim>1</dim>
				</port>
			</input>
			<output>
				<port id="2" precision="FP16">
					<dim>2</dim>
					<dim>64</dim>
					<dim>36</dim>
					<dim>60</dim>
				</port>
			</output>
		</layer>
		<layer id="10" name="data_add_1788818667/EltwiseUnsqueeze19333_const" type="Const" version="opset1">
			<data element_type="f16" offset="6560" shape="1,64,1,1" size="128"/>
			<output>
				<port id="1" precision="FP16">
					<dim>1</dim>
					<dim>64</dim>
					<dim>1</dim>
					<dim>1</dim>
				</port>
			</output>
		</layer>
		<layer id="11" name="hourglass_pre_res1_conv1_BatchNorm/FusedBatchNormV3/variance/Fused_Add_" type="Add" version="opset1">
			<input>
				<port id="0">
					<dim>2</dim>
					<dim>64</dim>
					<dim>36</dim>
					<dim>60</dim>
				</port>
				<port id="1">
					<dim>1</dim>
					<dim>64</dim>
					<dim>1</dim>
					<dim>1</dim>
				</port>
			</input>
			<output>
				<port id="2" precision="FP16">
					<dim>2</dim>
					<dim>64</dim>
					<dim>36</dim>
					<dim>60</dim>
				</port>
			</output>
		</layer>
		<layer id="12" name="activation_2/Relu" type="ReLU" version="opset1">
			<input>
				<port id="0">
					<dim>2</dim>
					<dim>64</dim>
					<dim>36</dim>
					<dim>60</dim>
				</port>
			</input>
			<output>
				<port id="1" precision="FP16">
					<dim>2</dim>
					<dim>64</dim>
					<dim>36</dim>
					<dim>60</dim>
				</port>
			</output>
		</layer>
		<layer id="13" name="hourglass_pre_res1_conv1/BiasAdd_weights_fused_bn/Output_0/Data__const" type="Const" version="opset1">
			<data element_type="f16" offset="6688" shape="64,64,1,1" size="8192"/>
			<output>
				<port id="1" precision="FP16">
					<dim>64</dim>
					<dim>64</dim>
					<dim>1</dim>
					<dim>1</dim>
				</port>
			</output>
		</layer>
		<layer id="14" name="hourglass_pre_res1_conv1/BiasAdd/WithoutBiases" type="Convolution" version="opset1">
			<data dilations="1,1" output_padding="0,0" pads_begin="0,0" pads_end="0,0" strides="1,1"/>
			<input>
				<port id="0">
					<dim>2</dim>
					<dim>64</dim>
					<dim>36</dim>
					<dim>60</dim>
				</port>
				<port id="1">
					<dim>64</dim>
					<dim>64</dim>
					<dim>1</dim>
					<dim>1</dim>
				</port>
			</input>
			<output>
				<port id="2" precision="FP16">
					<dim>2</dim>
					<dim>64</dim>
					<dim>36</dim>
					<dim>60</dim>
				</port>
			</output>
		</layer>
		<layer id="15" name="hourglass_pre_res1_conv1/BiasAdd/Dims982518503/EltwiseUnsqueeze18821_const" type="Const" version="opset1">
			<data element_type="f16" offset="14880" shape="1,64,1,1" size="128"/>
			<output>
				<port id="1" precision="FP16">
					<dim>1</dim>
					<dim>64</dim>
					<dim>1</dim>
					<dim>1</dim>
				</port>
			</output>
		</layer>
		<layer id="16" name="hourglass_pre_res1_conv1/BiasAdd" type="Add" version="opset1">
			<input>
				<port id="0">
					<dim>2</dim>
					<dim>64</dim>
					<dim>36</dim>
					<dim>60</dim>
				</port>
				<port id="1">
					<dim>1</dim>
					<dim>64</dim>
					<dim>1</dim>
					<dim>1</dim>
				</port>
			</input>
			<output>
				<port id="2" precision="FP16">
					<dim>2</dim>
					<dim>64</dim>
					<dim>36</dim>
					<dim>60</dim>
				</port>
			</output>
		</layer>
		<layer id="17" name="activation_3/Relu" type="ReLU" version="opset1">
			<input>
				<port id="0">
					<dim>2</dim>
					<dim>64</dim>
					<dim>36</dim>
					<dim>60</dim>
				</port>
			</input>
			<output>
				<port id="1" precision="FP16">
					<dim>2</dim>
					<dim>64</dim>
					<dim>36</dim>
					<dim>60</dim>
				</port>
			</output>
		</layer>
		<layer id="18" name="hourglass_pre_res1_conv2/BiasAdd_weights_fused_bn/Output_0/Data__const" type="Const" version="opset1">
			<data element_type="f16" offset="15008" shape="64,64,3,3" size="73728"/>
			<output>
				<port id="1" precision="FP16">
					<dim>64</dim>
					<dim>64</dim>
					<dim>3</dim>
					<dim>3</dim>
				</port>
			</output>
		</layer>
		<layer id="19" name="hourglass_pre_res1_conv2/BiasAdd/WithoutBiases" type="Convolution" version="opset1">
			<data dilations="1,1" output_padding="0,0" pads_begin="1,1" pads_end="1,1" strides="1,1"/>
			<input>
				<port id="0">
					<dim>2</dim>
					<dim>64</dim>
					<dim>36</dim>
					<dim>60</dim>
				</port>
				<port id="1">
					<dim>64</dim>
					<dim>64</dim>
					<dim>3</dim>
					<dim>3</dim>
				</port>
			</input>
			<output>
				<port id="2" precision="FP16">
					<dim>2</dim>
					<dim>64</dim>
					<dim>36</dim>
					<dim>60</dim>
				</port>
			</output>
		</layer>
		<layer id="20" name="hourglass_pre_res1_conv2/BiasAdd/Dims1052118619/EltwiseUnsqueeze19285_const" type="Const" version="opset1">
			<data element_type="f16" offset="88736" shape="1,64,1,1" size="128"/>
			<output>
				<port id="1" precision="FP16">
					<dim>1</dim>
					<dim>64</dim>
					<dim>1</dim>
					<dim>1</dim>
				</port>
			</output>
		</layer>
		<layer id="21" name="hourglass_pre_res1_conv2/BiasAdd" type="Add" version="opset1">
			<input>
				<port id="0">
					<dim>2</dim>
					<dim>64</dim>
					<dim>36</dim>
					<dim>60</dim>
				</port>
				<port id="1">
					<dim>1</dim>
					<dim>64</dim>
					<dim>1</dim>
					<dim>1</dim>
				</port>
			</input>
			<output>
				<port id="2" precision="FP16">
					<dim>2</dim>
					<dim>64</dim>
					<dim>36</dim>
					<dim>60</dim>
				</port>
			</output>
		</layer>
		<layer id="22" name="activation_4/Relu" type="ReLU" version="opset1">
			<input>
				<port id="0">
					<dim>2</dim>
					<dim>64</dim>
					<dim>36</dim>
					<dim>60</dim>
				</port>
			</input>
			<output>
				<port id="1" precision="FP16">
					<dim>2</dim>
					<dim>64</dim>
					<dim>36</dim>
					<dim>60</dim>
				</port>
			</output>
		</layer>
		<layer id="23" name="hourglass_pre_res1_conv3/Conv2D/ReadVariableOp:0/Output_0/Data__const" type="Const" version="opset1">
			<data element_type="f16" offset="88864" shape="128,64,1,1" size="16384"/>
			<output>
				<port id="1" precision="FP16">
					<dim>128</dim>
					<dim>64</dim>
					<dim>1</dim>
					<dim>1</dim>
				</port>
			</output>
		</layer>
		<layer id="24" name="hourglass_pre_res1_conv3/BiasAdd/WithoutBiases" type="Convolution" version="opset1">
			<data dilations="1,1" output_padding="0,0" pads_begin="0,0" pads_end="0,0" strides="1,1"/>
			<input>
				<port id="0">
					<dim>2</dim>
					<dim>64</dim>
					<dim>36</dim>
					<dim>60</dim>
				</port>
				<port id="1">
					<dim>128</dim>
					<dim>64</dim>
					<dim>1</dim>
					<dim>1</dim>
				</port>
			</input>
			<output>
				<port id="2" precision="FP16">
					<dim>2</dim>
					<dim>128</dim>
					<dim>36</dim>
					<dim>60</dim>
				</port>
			</output>
		</layer>
		<layer id="25" name="hourglass_pre_res1_conv3/BiasAdd/Dims1005918542/EltwiseUnsqueeze18977_const" type="Const" version="opset1">
			<data element_type="f16" offset="105248" shape="1,128,1,1" size="256"/>
			<output>
				<port id="1" precision="FP16">
					<dim>1</dim>
					<dim>128</dim>
					<dim>1</dim>
					<dim>1</dim>
				</port>
			</output>
		</layer>
		<layer id="26" name="hourglass_pre_res1_conv3/BiasAdd" type="Add" version="opset1">
			<input>
				<port id="0">
					<dim>2</dim>
					<dim>128</dim>
					<dim>36</dim>
					<dim>60</dim>
				</port>
				<port id="1">
					<dim>1</dim>
					<dim>128</dim>
					<dim>1</dim>
					<dim>1</dim>
				</port>
			</input>
			<output>
				<port id="2" precision="FP16">
					<dim>2</dim>
					<dim>128</dim>
					<dim>36</dim>
					<dim>60</dim>
				</port>
			</output>
		</layer>
		<layer id="27" name="hourglass_pre_res1_skip/Conv2D/ReadVariableOp:0/Output_0/Data__const" type="Const" version="opset1">
			<data element_type="f16" offset="105504" shape="128,64,1,1" size="16384"/>
			<output>
				<port id="1" precision="FP16">
					<dim>128</dim>
					<dim>64</dim>
					<dim>1</dim>
					<dim>1</dim>
				</port>
			</output>
		</layer>
		<layer id="28" name="hourglass_pre_res1_skip/BiasAdd/WithoutBiases" type="Convolution" version="opset1">
			<data dilations="1,1" output_padding="0,0" pads_begin="0,0" pads_end="0,0" strides="1,1"/>
			<input>
				<port id="0">
					<dim>2</dim>
					<dim>64</dim>
					<dim>36</dim>
					<dim>60</dim>
				</port>
				<port id="1">
					<dim>128</dim>
					<dim>64</dim>
					<dim>1</dim>
					<dim>1</dim>
				</port>
			</input>
			<output>
				<port id="2" precision="FP16">
					<dim>2</dim>
					<dim>128</dim>
					<dim>36</dim>
					<dim>60</dim>
				</port>
			</output>
		</layer>
		<layer id="29" name="hourglass_pre_res1_skip/BiasAdd/Dims1000518533/EltwiseUnsqueeze18941_const" type="Const" version="opset1">
			<data element_type="f16" offset="105248" shape="1,128,1,1" size="256"/>
			<output>
				<port id="1" precision="FP16">
					<dim>1</dim>
					<dim>128</dim>
					<dim>1</dim>
					<dim>1</dim>
				</port>
			</output>
		</layer>
		<layer id="30" name="hourglass_pre_res1_skip/BiasAdd" type="Add" version="opset1">
			<input>
				<port id="0">
					<dim>2</dim>
					<dim>128</dim>
					<dim>36</dim>
					<dim>60</dim>
				</port>
				<port id="1">
					<dim>1</dim>
					<dim>128</dim>
					<dim>1</dim>
					<dim>1</dim>
				</port>
			</input>
			<output>
				<port id="2" precision="FP16">
					<dim>2</dim>
					<dim>128</dim>
					<dim>36</dim>
					<dim>60</dim>
				</port>
			</output>
		</layer>
		<layer id="31" name="add_1/add" type="Add" version="opset1">
			<input>
				<port id="0">
					<dim>2</dim>
					<dim>128</dim>
					<dim>36</dim>
					<dim>60</dim>
				</port>
				<port id="1">
					<dim>2</dim>
					<dim>128</dim>
					<dim>36</dim>
					<dim>60</dim>
				</port>
			</input>
			<output>
				<port id="2" precision="FP16">
					<dim>2</dim>
					<dim>128</dim>
					<dim>36</dim>
					<dim>60</dim>
				</port>
			</output>
		</layer>
		<layer id="32" name="data_mul_178901789418668/EltwiseUnsqueeze19337_const" type="Const" version="opset1">
			<data element_type="f16" offset="121888" shape="1,128,1,1" size="256"/>
			<output>
				<port id="1" precision="FP16">
					<dim>1</dim>
					<dim>128</dim>
					<dim>1</dim>
					<dim>1</dim>
				</port>
			</output>
		</layer>
		<layer id="33" name="hourglass_pre_res2_conv1_BatchNorm/FusedBatchNormV3/mean/Fused_Mul_" type="Multiply" version="opset1">
			<input>
				<port id="0">
					<dim>2</dim>
					<dim>128</dim>
					<dim>36</dim>
					<dim>60</dim>
				</port>
				<port id="1">
					<dim>1</dim>
					<dim>128</dim>
					<dim>1</dim>
					<dim>1</dim>
				</port>
			</input>
			<output>
				<port id="2" precision="FP16">
					<dim>2</dim>
					<dim>128</dim>
					<dim>36</dim>
					<dim>60</dim>
				</port>
			</output>
		</layer>
		<layer id="34" name="data_add_178911789618669/EltwiseUnsqueeze19341_const" type="Const" version="opset1">
			<data element_type="f16" offset="122144" shape="1,128,1,1" size="256"/>
			<output>
				<port id="1" precision="FP16">
					<dim>1</dim>
					<dim>128</dim>
					<dim>1</dim>
					<dim>1</dim>
				</port>
			</output>
		</layer>
		<layer id="35" name="hourglass_pre_res2_conv1_BatchNorm/FusedBatchNormV3/variance/Fused_Add_" type="Add" version="opset1">
			<input>
				<port id="0">
					<dim>2</dim>
					<dim>128</dim>
					<dim>36</dim>
					<dim>60</dim>
				</port>
				<port id="1">
					<dim>1</dim>
					<dim>128</dim>
					<dim>1</dim>
					<dim>1</dim>
				</port>
			</input>
			<output>
				<port id="2" precision="FP16">
					<dim>2</dim>
					<dim>128</dim>
					<dim>36</dim>
					<dim>60</dim>
				</port>
			</output>
		</layer>
		<layer id="36" name="activation_5/Relu" type="ReLU" version="opset1">
			<input>
				<port id="0">
					<dim>2</dim>
					<dim>128</dim>
					<dim>36</dim>
					<dim>60</dim>
				</port>
			</input>
			<output>
				<port id="1" precision="FP16">
					<dim>2</dim>
					<dim>128</dim>
					<dim>36</dim>
					<dim>60</dim>
				</port>
			</output>
		</layer>
		<layer id="37" name="hourglass_pre_res2_conv1/BiasAdd_weights_fused_bn/Output_0/Data__const" type="Const" version="opset1">
			<data element_type="f16" offset="122400" shape="32,128,1,1" size="8192"/>
			<output>
				<port id="1" precision="FP16">
					<dim>32</dim>
					<dim>128</dim>
					<dim>1</dim>
					<dim>1</dim>
				</port>
			</output>
		</layer>
		<layer id="38" name="hourglass_pre_res2_conv1/BiasAdd/WithoutBiases" type="Convolution" version="opset1">
			<data dilations="1,1" output_padding="0,0" pads_begin="0,0" pads_end="0,0" strides="1,1"/>
			<input>
				<port id="0">
					<dim>2</dim>
					<dim>128</dim>
					<dim>36</dim>
					<dim>60</dim>
				</port>
				<port id="1">
					<dim>32</dim>
					<dim>128</dim>
					<dim>1</dim>
					<dim>1</dim>
				</port>
			</input>
			<output>
				<port id="2" precision="FP16">
					<dim>2</dim>
					<dim>32</dim>
					<dim>36</dim>
					<dim>60</dim>
				</port>
			</output>
		</layer>
		<layer id="39" name="hourglass_pre_res2_conv1/BiasAdd/Dims1032918587/EltwiseUnsqueeze19157_const" type="Const" version="opset1">
			<data element_type="f16" offset="130592" shape="1,32,1,1" size="64"/>
			<output>
				<port id="1" precision="FP16">
					<dim>1</dim>
					<dim>32</dim>
					<dim>1</dim>
					<dim>1</dim>
				</port>
			</output>
		</layer>
		<layer id="40" name="hourglass_pre_res2_conv1/BiasAdd" type="Add" version="opset1">
			<input>
				<port id="0">
					<dim>2</dim>
					<dim>32</dim>
					<dim>36</dim>
					<dim>60</dim>
				</port>
				<port id="1">
					<dim>1</dim>
					<dim>32</dim>
					<dim>1</dim>
					<dim>1</dim>
				</port>
			</input>
			<output>
				<port id="2" precision="FP16">
					<dim>2</dim>
					<dim>32</dim>
					<dim>36</dim>
					<dim>60</dim>
				</port>
			</output>
		</layer>
		<layer id="41" name="activation_6/Relu" type="ReLU" version="opset1">
			<input>
				<port id="0">
					<dim>2</dim>
					<dim>32</dim>
					<dim>36</dim>
					<dim>60</dim>
				</port>
			</input>
			<output>
				<port id="1" precision="FP16">
					<dim>2</dim>
					<dim>32</dim>
					<dim>36</dim>
					<dim>60</dim>
				</port>
			</output>
		</layer>
		<layer id="42" name="hourglass_pre_res2_conv2/BiasAdd_weights_fused_bn/Output_0/Data__const" type="Const" version="opset1">
			<data element_type="f16" offset="130656" shape="32,32,3,3" size="18432"/>
			<output>
				<port id="1" precision="FP16">
					<dim>32</dim>
					<dim>32</dim>
					<dim>3</dim>
					<dim>3</dim>
				</port>
			</output>
		</layer>
		<layer id="43" name="hourglass_pre_res2_conv2/BiasAdd/WithoutBiases" type="Convolution" version="opset1">
			<data dilations="1,1" output_padding="0,0" pads_begin="1,1" pads_end="1,1" strides="1,1"/>
			<input>
				<port id="0">
					<dim>2</dim>
					<dim>32</dim>
					<dim>36</dim>
					<dim>60</dim>
				</port>
				<port id="1">
					<dim>32</dim>
					<dim>32</dim>
					<dim>3</dim>
					<dim>3</dim>
				</port>
			</input>
			<output>
				<port id="2" precision="FP16">
					<dim>2</dim>
					<dim>32</dim>
					<dim>36</dim>
					<dim>60</dim>
				</port>
			</output>
		</layer>
		<layer id="44" name="hourglass_pre_res2_conv2/BiasAdd/Dims1040718600/EltwiseUnsqueeze19209_const" type="Const" version="opset1">
			<data element_type="f16" offset="149088" shape="1,32,1,1" size="64"/>
			<output>
				<port id="1" precision="FP16">
					<dim>1</dim>
					<dim>32</dim>
					<dim>1</dim>
					<dim>1</dim>
				</port>
			</output>
		</layer>
		<layer id="45" name="hourglass_pre_res2_conv2/BiasAdd" type="Add" version="opset1">
			<input>
				<port id="0">
					<dim>2</dim>
					<dim>32</dim>
					<dim>36</dim>
					<dim>60</dim>
				</port>
				<port id="1">
					<dim>1</dim>
					<dim>32</dim>
					<dim>1</dim>
					<dim>1</dim>
				</port>
			</input>
			<output>
				<port id="2" precision="FP16">
					<dim>2</dim>
					<dim>32</dim>
					<dim>36</dim>
					<dim>60</dim>
				</port>
			</output>
		</layer>
		<layer id="46" name="activation_7/Relu" type="ReLU" version="opset1">
			<input>
				<port id="0">
					<dim>2</dim>
					<dim>32</dim>
					<dim>36</dim>
					<dim>60</dim>
				</port>
			</input>
			<output>
				<port id="1" precision="FP16">
					<dim>2</dim>
					<dim>32</dim>
					<dim>36</dim>
					<dim>60</dim>
				</port>
			</output>
		</layer>
		<layer id="47" name="hourglass_pre_res2_conv3/Conv2D/ReadVariableOp:0/Output_0/Data__const" type="Const" version="opset1">
			<data element_type="f16" offset="149152" shape="64,32,1,1" size="4096"/>
			<output>
				<port id="1" precision="FP16">
					<dim>64</dim>
					<dim>32</dim>
					<dim>1</dim>
					<dim>1</dim>
				</port>
			</output>
		</layer>
		<layer id="48" name="hourglass_pre_res2_conv3/BiasAdd/WithoutBiases" type="Convolution" version="opset1">
			<data dilations="1,1" output_padding="0,0" pads_begin="0,0" pads_end="0,0" strides="1,1"/>
			<input>
				<port id="0">
					<dim>2</dim>
					<dim>32</dim>
					<dim>36</dim>
					<dim>60</dim>
				</port>
				<port id="1">
					<dim>64</dim>
					<dim>32</dim>
					<dim>1</dim>
					<dim>1</dim>
				</port>
			</input>
			<output>
				<port id="2" precision="FP16">
					<dim>2</dim>
					<dim>64</dim>
					<dim>36</dim>
					<dim>60</dim>
				</port>
			</output>
		</layer>
		<layer id="49" name="hourglass_pre_res2_conv3/BiasAdd/Dims1008318546/EltwiseUnsqueeze18993_const" type="Const" version="opset1">
			<data element_type="f16" offset="153248" shape="1,64,1,1" size="128"/>
			<output>
				<port id="1" precision="FP16">
					<dim>1</dim>
					<dim>64</dim>
					<dim>1</dim>
					<dim>1</dim>
				</port>
			</output>
		</layer>
		<layer id="50" name="hourglass_pre_res2_conv3/BiasAdd" type="Add" version="opset1">
			<input>
				<port id="0">
					<dim>2</dim>
					<dim>64</dim>
					<dim>36</dim>
					<dim>60</dim>
				</port>
				<port id="1">
					<dim>1</dim>
					<dim>64</dim>
					<dim>1</dim>
					<dim>1</dim>
				</port>
			</input>
			<output>
				<port id="2" precision="FP16">
					<dim>2</dim>
					<dim>64</dim>
					<dim>36</dim>
					<dim>60</dim>
				</port>
			</output>
		</layer>
		<layer id="51" name="hourglass_pre_res2_skip/Conv2D/ReadVariableOp:0/Output_0/Data__const" type="Const" version="opset1">
			<data element_type="f16" offset="153376" shape="64,128,1,1" size="16384"/>
			<output>
				<port id="1" precision="FP16">
					<dim>64</dim>
					<dim>128</dim>
					<dim>1</dim>
					<dim>1</dim>
				</port>
			</output>
		</layer>
		<layer id="52" name="hourglass_pre_res2_skip/BiasAdd/WithoutBiases" type="Convolution" version="opset1">
			<data dilations="1,1" output_padding="0,0" pads_begin="0,0" pads_end="0,0" strides="1,1"/>
			<input>
				<port id="0">
					<dim>2</dim>
					<dim>128</dim>
					<dim>36</dim>
					<dim>60</dim>
				</port>
				<port id="1">
					<dim>64</dim>
					<dim>128</dim>
					<dim>1</dim>
					<dim>1</dim>
				</port>
			</input>
			<output>
				<port id="2" precision="FP16">
					<dim>2</dim>
					<dim>64</dim>
					<dim>36</dim>
					<dim>60</dim>
				</port>
			</output>
		</layer>
		<layer id="53" name="hourglass_pre_res2_skip/BiasAdd/Dims1027518578/EltwiseUnsqueeze19121_const" type="Const" version="opset1">
			<data element_type="f16" offset="153248" shape="1,64,1,1" size="128"/>
			<output>
				<port id="1" precision="FP16">
					<dim>1</dim>
					<dim>64</dim>
					<dim>1</dim>
					<dim>1</dim>
				</port>
			</output>
		</layer>
		<layer id="54" name="hourglass_pre_res2_skip/BiasAdd" type="Add" version="opset1">
			<input>
				<port id="0">
					<dim>2</dim>
					<dim>64</dim>
					<dim>36</dim>
					<dim>60</dim>
				</port>
				<port id="1">
					<dim>1</dim>
					<dim>64</dim>
					<dim>1</dim>
					<dim>1</dim>
				</port>
			</input>
			<output>
				<port id="2" precision="FP16">
					<dim>2</dim>
					<dim>64</dim>
					<dim>36</dim>
					<dim>60</dim>
				</port>
			</output>
		</layer>
		<layer id="55" name="add_2/add" type="Add" version="opset1">
			<input>
				<port id="0">
					<dim>2</dim>
					<dim>64</dim>
					<dim>36</dim>
					<dim>60</dim>
				</port>
				<port id="1">
					<dim>2</dim>
					<dim>64</dim>
					<dim>36</dim>
					<dim>60</dim>
				</port>
			</input>
			<output>
				<port id="2" precision="FP16">
					<dim>2</dim>
					<dim>64</dim>
					<dim>36</dim>
					<dim>60</dim>
				</port>
			</output>
		</layer>
		<layer id="56" name="data_mul_178981790218670/EltwiseUnsqueeze19345_const" type="Const" version="opset1">
			<data element_type="f16" offset="169760" shape="1,64,1,1" size="128"/>
			<output>
				<port id="1" precision="FP16">
					<dim>1</dim>
					<dim>64</dim>
					<dim>1</dim>
					<dim>1</dim>
				</port>
			</output>
		</layer>
		<layer id="57" name="hourglass_hg_1_depth1_up1_1_conv1_BatchNorm/FusedBatchNormV3/mean/Fused_Mul_" type="Multiply" version="opset1">
			<input>
				<port id="0">
					<dim>2</dim>
					<dim>64</dim>
					<dim>36</dim>
					<dim>60</dim>
				</port>
				<port id="1">
					<dim>1</dim>
					<dim>64</dim>
					<dim>1</dim>
					<dim>1</dim>
				</port>
			</input>
			<output>
				<port id="2" precision="FP16">
					<dim>2</dim>
					<dim>64</dim>
					<dim>36</dim>
					<dim>60</dim>
				</port>
			</output>
		</layer>
		<layer id="58" name="data_add_178991790418671/EltwiseUnsqueeze19349_const" type="Const" version="opset1">
			<data element_type="f16" offset="169888" shape="1,64,1,1" size="128"/>
			<output>
				<port id="1" precision="FP16">
					<dim>1</dim>
					<dim>64</dim>
					<dim>1</dim>
					<dim>1</dim>
				</port>
			</output>
		</layer>
		<layer id="59" name="hourglass_hg_1_depth1_up1_1_conv1_BatchNorm/FusedBatchNormV3/variance/Fused_Add_" type="Add" version="opset1">
			<input>
				<port id="0">
					<dim>2</dim>
					<dim>64</dim>
					<dim>36</dim>
					<dim>60</dim>
				</port>
				<port id="1">
					<dim>1</dim>
					<dim>64</dim>
					<dim>1</dim>
					<dim>1</dim>
				</port>
			</input>
			<output>
				<port id="2" precision="FP16">
					<dim>2</dim>
					<dim>64</dim>
					<dim>36</dim>
					<dim>60</dim>
				</port>
			</output>
		</layer>
		<layer id="60" name="activation_8/Relu" type="ReLU" version="opset1">
			<input>
				<port id="0">
					<dim>2</dim>
					<dim>64</dim>
					<dim>36</dim>
					<dim>60</dim>
				</port>
			</input>
			<output>
				<port id="1" precision="FP16">
					<dim>2</dim>
					<dim>64</dim>
					<dim>36</dim>
					<dim>60</dim>
				</port>
			</output>
		</layer>
		<layer id="61" name="hourglass_hg_1_depth1_up1_1_conv1/BiasAdd_weights_fused_bn/Output_0/Data__const" type="Const" version="opset1">
			<data element_type="f16" offset="170016" shape="32,64,1,1" size="4096"/>
			<output>
				<port id="1" precision="FP16">
					<dim>32</dim>
					<dim>64</dim>
					<dim>1</dim>
					<dim>1</dim>
				</port>
			</output>
		</layer>
		<layer id="62" name="hourglass_hg_1_depth1_up1_1_conv1/BiasAdd/WithoutBiases" type="Convolution" version="opset1">
			<data dilations="1,1" output_padding="0,0" pads_begin="0,0" pads_end="0,0" strides="1,1"/>
			<input>
				<port id="0">
					<dim>2</dim>
					<dim>64</dim>
					<dim>36</dim>
					<dim>60</dim>
				</port>
				<port id="1">
					<dim>32</dim>
					<dim>64</dim>
					<dim>1</dim>
					<dim>1</dim>
				</port>
			</input>
			<output>
				<port id="2" precision="FP16">
					<dim>2</dim>
					<dim>32</dim>
					<dim>36</dim>
					<dim>60</dim>
				</port>
			</output>
		</layer>
		<layer id="63" name="hourglass_hg_1_depth1_up1_1_conv1/BiasAdd/Dims1017918562/EltwiseUnsqueeze19057_const" type="Const" version="opset1">
			<data element_type="f16" offset="174112" shape="1,32,1,1" size="64"/>
			<output>
				<port id="1" precision="FP16">
					<dim>1</dim>
					<dim>32</dim>
					<dim>1</dim>
					<dim>1</dim>
				</port>
			</output>
		</layer>
		<layer id="64" name="hourglass_hg_1_depth1_up1_1_conv1/BiasAdd" type="Add" version="opset1">
			<input>
				<port id="0">
					<dim>2</dim>
					<dim>32</dim>
					<dim>36</dim>
					<dim>60</dim>
				</port>
				<port id="1">
					<dim>1</dim>
					<dim>32</dim>
					<dim>1</dim>
					<dim>1</dim>
				</port>
			</input>
			<output>
				<port id="2" precision="FP16">
					<dim>2</dim>
					<dim>32</dim>
					<dim>36</dim>
					<dim>60</dim>
				</port>
			</output>
		</layer>
		<layer id="65" name="activation_9/Relu" type="ReLU" version="opset1">
			<input>
				<port id="0">
					<dim>2</dim>
					<dim>32</dim>
					<dim>36</dim>
					<dim>60</dim>
				</port>
			</input>
			<output>
				<port id="1" precision="FP16">
					<dim>2</dim>
					<dim>32</dim>
					<dim>36</dim>
					<dim>60</dim>
				</port>
			</output>
		</layer>
		<layer id="66" name="hourglass_hg_1_depth1_up1_1_conv2/BiasAdd_weights_fused_bn/Output_0/Data__const" type="Const" version="opset1">
			<data element_type="f16" offset="174176" shape="32,32,3,3" size="18432"/>
			<output>
				<port id="1" precision="FP16">
					<dim>32</dim>
					<dim>32</dim>
					<dim>3</dim>
					<dim>3</dim>
				</port>
			</output>
		</layer>
		<layer id="67" name="hourglass_hg_1_depth1_up1_1_conv2/BiasAdd/WithoutBiases" type="Convolution" version="opset1">
			<data dilations="1,1" output_padding="0,0" pads_begin="1,1" pads_end="1,1" strides="1,1"/>
			<input>
				<port id="0">
					<dim>2</dim>
					<dim>32</dim>
					<dim>36</dim>
					<dim>60</dim>
				</port>
				<port id="1">
					<dim>32</dim>
					<dim>32</dim>
					<dim>3</dim>
					<dim>3</dim>
				</port>
			</input>
			<output>
				<port id="2" precision="FP16">
					<dim>2</dim>
					<dim>32</dim>
					<dim>36</dim>
					<dim>60</dim>
				</port>
			</output>
		</layer>
		<layer id="68" name="hourglass_hg_1_depth1_up1_1_conv2/BiasAdd/Dims992118519/EltwiseUnsqueeze18885_const" type="Const" version="opset1">
			<data element_type="f16" offset="192608" shape="1,32,1,1" size="64"/>
			<output>
				<port id="1" precision="FP16">
					<dim>1</dim>
					<dim>32</dim>
					<dim>1</dim>
					<dim>1</dim>
				</port>
			</output>
		</layer>
		<layer id="69" name="hourglass_hg_1_depth1_up1_1_conv2/BiasAdd" type="Add" version="opset1">
			<input>
				<port id="0">
					<dim>2</dim>
					<dim>32</dim>
					<dim>36</dim>
					<dim>60</dim>
				</port>
				<port id="1">
					<dim>1</dim>
					<dim>32</dim>
					<dim>1</dim>
					<dim>1</dim>
				</port>
			</input>
			<output>
				<port id="2" precision="FP16">
					<dim>2</dim>
					<dim>32</dim>
					<dim>36</dim>
					<dim>60</dim>
				</port>
			</output>
		</layer>
		<layer id="70" name="activation_10/Relu" type="ReLU" version="opset1">
			<input>
				<port id="0">
					<dim>2</dim>
					<dim>32</dim>
					<dim>36</dim>
					<dim>60</dim>
				</port>
			</input>
			<output>
				<port id="1" precision="FP16">
					<dim>2</dim>
					<dim>32</dim>
					<dim>36</dim>
					<dim>60</dim>
				</port>
			</output>
		</layer>
		<layer id="71" name="hourglass_hg_1_depth1_up1_1_conv3/Conv2D/ReadVariableOp:0/Output_0/Data__const" type="Const" version="opset1">
			<data element_type="f16" offset="192672" shape="64,32,1,1" size="4096"/>
			<output>
				<port id="1" precision="FP16">
					<dim>64</dim>
					<dim>32</dim>
					<dim>1</dim>
					<dim>1</dim>
				</port>
			</output>
		</layer>
		<layer id="72" name="hourglass_hg_1_depth1_up1_1_conv3/BiasAdd/WithoutBiases" type="Convolution" version="opset1">
			<data dilations="1,1" output_padding="0,0" pads_begin="0,0" pads_end="0,0" strides="1,1"/>
			<input>
				<port id="0">
					<dim>2</dim>
					<dim>32</dim>
					<dim>36</dim>
					<dim>60</dim>
				</port>
				<port id="1">
					<dim>64</dim>
					<dim>32</dim>
					<dim>1</dim>
					<dim>1</dim>
				</port>
			</input>
			<output>
				<port id="2" precision="FP16">
					<dim>2</dim>
					<dim>64</dim>
					<dim>36</dim>
					<dim>60</dim>
				</port>
			</output>
		</layer>
		<layer id="73" name="hourglass_hg_1_depth1_up1_1_conv3/BiasAdd/Dims1047918612/EltwiseUnsqueeze19257_const" type="Const" version="opset1">
			<data element_type="f16" offset="196768" shape="1,64,1,1" size="128"/>
			<output>
				<port id="1" precision="FP16">
					<dim>1</dim>
					<dim>64</dim>
					<dim>1</dim>
					<dim>1</dim>
				</port>
			</output>
		</layer>
		<layer id="74" name="hourglass_hg_1_depth1_up1_1_conv3/BiasAdd" type="Add" version="opset1">
			<input>
				<port id="0">
					<dim>2</dim>
					<dim>64</dim>
					<dim>36</dim>
					<dim>60</dim>
				</port>
				<port id="1">
					<dim>1</dim>
					<dim>64</dim>
					<dim>1</dim>
					<dim>1</dim>
				</port>
			</input>
			<output>
				<port id="2" precision="FP16">
					<dim>2</dim>
					<dim>64</dim>
					<dim>36</dim>
					<dim>60</dim>
				</port>
			</output>
		</layer>
		<layer id="75" name="add_3/add" type="Add" version="opset1">
			<input>
				<port id="0">
					<dim>2</dim>
					<dim>64</dim>
					<dim>36</dim>
					<dim>60</dim>
				</port>
				<port id="1">
					<dim>2</dim>
					<dim>64</dim>
					<dim>36</dim>
					<dim>60</dim>
				</port>
			</input>
			<output>
				<port id="2" precision="FP16">
					<dim>2</dim>
					<dim>64</dim>
					<dim>36</dim>
					<dim>60</dim>
				</port>
			</output>
		</layer>
		<layer id="76" name="max_pooling2d_1/MaxPool" type="MaxPool" version="opset1">
			<data kernel="2,2" pads_begin="0,0" pads_end="0,0" rounding_type="floor" strides="2,2"/>
			<input>
				<port id="0">
					<dim>2</dim>
					<dim>64</dim>
					<dim>36</dim>
					<dim>60</dim>
				</port>
			</input>
			<output>
				<port id="1" precision="FP16">
					<dim>2</dim>
					<dim>64</dim>
					<dim>18</dim>
					<dim>30</dim>
				</port>
			</output>
		</layer>
		<layer id="77" name="data_mul_179061791018672/EltwiseUnsqueeze19353_const" type="Const" version="opset1">
			<data element_type="f16" offset="196896" shape="1,64,1,1" size="128"/>
			<output>
				<port id="1" precision="FP16">
					<dim>1</dim>
					<dim>64</dim>
					<dim>1</dim>
					<dim>1</dim>
				</port>
			</output>
		</layer>
		<layer id="78" name="hourglass_hg_1_depth1_low1_1_conv1_BatchNorm/FusedBatchNormV3/mean/Fused_Mul_" type="Multiply" version="opset1">
			<input>
				<port id="0">
					<dim>2</dim>
					<dim>64</dim>
					<dim>18</dim>
					<dim>30</dim>
				</port>
				<port id="1">
					<dim>1</dim>
					<dim>64</dim>
					<dim>1</dim>
					<dim>1</dim>
				</port>
			</input>
			<output>
				<port id="2" precision="FP16">
					<dim>2</dim>
					<dim>64</dim>
					<dim>18</dim>
					<dim>30</dim>
				</port>
			</output>
		</layer>
		<layer id="79" name="data_add_179071791218673/EltwiseUnsqueeze19357_const" type="Const" version="opset1">
			<data element_type="f16" offset="197024" shape="1,64,1,1" size="128"/>
			<output>
				<port id="1" precision="FP16">
					<dim>1</dim>
					<dim>64</dim>
					<dim>1</dim>
					<dim>1</dim>
				</port>
			</output>
		</layer>
		<layer id="80" name="hourglass_hg_1_depth1_low1_1_conv1_BatchNorm/FusedBatchNormV3/variance/Fused_Add_" type="Add" version="opset1">
			<input>
				<port id="0">
					<dim>2</dim>
					<dim>64</dim>
					<dim>18</dim>
					<dim>30</dim>
				</port>
				<port id="1">
					<dim>1</dim>
					<dim>64</dim>
					<dim>1</dim>
					<dim>1</dim>
				</port>
			</input>
			<output>
				<port id="2" precision="FP16">
					<dim>2</dim>
					<dim>64</dim>
					<dim>18</dim>
					<dim>30</dim>
				</port>
			</output>
		</layer>
		<layer id="81" name="activation_11/Relu" type="ReLU" version="opset1">
			<input>
				<port id="0">
					<dim>2</dim>
					<dim>64</dim>
					<dim>18</dim>
					<dim>30</dim>
				</port>
			</input>
			<output>
				<port id="1" precision="FP16">
					<dim>2</dim>
					<dim>64</dim>
					<dim>18</dim>
					<dim>30</dim>
				</port>
			</output>
		</layer>
		<layer id="82" name="hourglass_hg_1_depth1_low1_1_conv1/BiasAdd_weights_fused_bn/Output_0/Data__const" type="Const" version="opset1">
			<data element_type="f16" offset="197152" shape="32,64,1,1" size="4096"/>
			<output>
				<port id="1" precision="FP16">
					<dim>32</dim>
					<dim>64</dim>
					<dim>1</dim>
					<dim>1</dim>
				</port>
			</output>
		</layer>
		<layer id="83" name="hourglass_hg_1_depth1_low1_1_conv1/BiasAdd/WithoutBiases" type="Convolution" version="opset1">
			<data dilations="1,1" output_padding="0,0" pads_begin="0,0" pads_end="0,0" strides="1,1"/>
			<input>
				<port id="0">
					<dim>2</dim>
					<dim>64</dim>
					<dim>18</dim>
					<dim>30</dim>
				</port>
				<port id="1">
					<dim>32</dim>
					<dim>64</dim>
					<dim>1</dim>
					<dim>1</dim>
				</port>
			</input>
			<output>
				<port id="2" precision="FP16">
					<dim>2</dim>
					<dim>32</dim>
					<dim>18</dim>
					<dim>30</dim>
				</port>
			</output>
		</layer>
		<layer id="84" name="hourglass_hg_1_depth1_low1_1_conv1/BiasAdd/Dims977118494/EltwiseUnsqueeze18785_const" type="Const" version="opset1">
			<data element_type="f16" offset="201248" shape="1,32,1,1" size="64"/>
			<output>
				<port id="1" precision="FP16">
					<dim>1</dim>
					<dim>32</dim>
					<dim>1</dim>
					<dim>1</dim>
				</port>
			</output>
		</layer>
		<layer id="85" name="hourglass_hg_1_depth1_low1_1_conv1/BiasAdd" type="Add" version="opset1">
			<input>
				<port id="0">
					<dim>2</dim>
					<dim>32</dim>
					<dim>18</dim>
					<dim>30</dim>
				</port>
				<port id="1">
					<dim>1</dim>
					<dim>32</dim>
					<dim>1</dim>
					<dim>1</dim>
				</port>
			</input>
			<output>
				<port id="2" precision="FP16">
					<dim>2</dim>
					<dim>32</dim>
					<dim>18</dim>
					<dim>30</dim>
				</port>
			</output>
		</layer>
		<layer id="86" name="activation_12/Relu" type="ReLU" version="opset1">
			<input>
				<port id="0">
					<dim>2</dim>
					<dim>32</dim>
					<dim>18</dim>
					<dim>30</dim>
				</port>
			</input>
			<output>
				<port id="1" precision="FP16">
					<dim>2</dim>
					<dim>32</dim>
					<dim>18</dim>
					<dim>30</dim>
				</port>
			</output>
		</layer>
		<layer id="87" name="hourglass_hg_1_depth1_low1_1_conv2/BiasAdd_weights_fused_bn/Output_0/Data__const" type="Const" version="opset1">
			<data element_type="f16" offset="201312" shape="32,32,3,3" size="18432"/>
			<output>
				<port id="1" precision="FP16">
					<dim>32</dim>
					<dim>32</dim>
					<dim>3</dim>
					<dim>3</dim>
				</port>
			</output>
		</layer>
		<layer id="88" name="hourglass_hg_1_depth1_low1_1_conv2/BiasAdd/WithoutBiases" type="Convolution" version="opset1">
			<data dilations="1,1" output_padding="0,0" pads_begin="1,1" pads_end="1,1" strides="1,1"/>
			<input>
				<port id="0">
					<dim>2</dim>
					<dim>32</dim>
					<dim>18</dim>
					<dim>30</dim>
				</port>
				<port id="1">
					<dim>32</dim>
					<dim>32</dim>
					<dim>3</dim>
					<dim>3</dim>
				</port>
			</input>
			<output>
				<port id="2" precision="FP16">
					<dim>2</dim>
					<dim>32</dim>
					<dim>18</dim>
					<dim>30</dim>
				</port>
			</output>
		</layer>
		<layer id="89" name="hourglass_hg_1_depth1_low1_1_conv2/BiasAdd/Dims1014918557/EltwiseUnsqueeze19037_const" type="Const" version="opset1">
			<data element_type="f16" offset="219744" shape="1,32,1,1" size="64"/>
			<output>
				<port id="1" precision="FP16">
					<dim>1</dim>
					<dim>32</dim>
					<dim>1</dim>
					<dim>1</dim>
				</port>
			</output>
		</layer>
		<layer id="90" name="hourglass_hg_1_depth1_low1_1_conv2/BiasAdd" type="Add" version="opset1">
			<input>
				<port id="0">
					<dim>2</dim>
					<dim>32</dim>
					<dim>18</dim>
					<dim>30</dim>
				</port>
				<port id="1">
					<dim>1</dim>
					<dim>32</dim>
					<dim>1</dim>
					<dim>1</dim>
				</port>
			</input>
			<output>
				<port id="2" precision="FP16">
					<dim>2</dim>
					<dim>32</dim>
					<dim>18</dim>
					<dim>30</dim>
				</port>
			</output>
		</layer>
		<layer id="91" name="activation_13/Relu" type="ReLU" version="opset1">
			<input>
				<port id="0">
					<dim>2</dim>
					<dim>32</dim>
					<dim>18</dim>
					<dim>30</dim>
				</port>
			</input>
			<output>
				<port id="1" precision="FP16">
					<dim>2</dim>
					<dim>32</dim>
					<dim>18</dim>
					<dim>30</dim>
				</port>
			</output>
		</layer>
		<layer id="92" name="hourglass_hg_1_depth1_low1_1_conv3/Conv2D/ReadVariableOp:0/Output_0/Data__const" type="Const" version="opset1">
			<data element_type="f16" offset="219808" shape="64,32,1,1" size="4096"/>
			<output>
				<port id="1" precision="FP16">
					<dim>64</dim>
					<dim>32</dim>
					<dim>1</dim>
					<dim>1</dim>
				</port>
			</output>
		</layer>
		<layer id="93" name="hourglass_hg_1_depth1_low1_1_conv3/BiasAdd/WithoutBiases" type="Convolution" version="opset1">
			<data dilations="1,1" output_padding="0,0" pads_begin="0,0" pads_end="0,0" strides="1,1"/>
			<input>
				<port id="0">
					<dim>2</dim>
					<dim>32</dim>
					<dim>18</dim>
					<dim>30</dim>
				</port>
				<port id="1">
					<dim>64</dim>
					<dim>32</dim>
					<dim>1</dim>
					<dim>1</dim>
				</port>
			</input>
			<output>
				<port id="2" precision="FP16">
					<dim>2</dim>
					<dim>64</dim>
					<dim>18</dim>
					<dim>30</dim>
				</port>
			</output>
		</layer>
		<layer id="94" name="hourglass_hg_1_depth1_low1_1_conv3/BiasAdd/Dims1034118589/EltwiseUnsqueeze19165_const" type="Const" version="opset1">
			<data element_type="f16" offset="223904" shape="1,64,1,1" size="128"/>
			<output>
				<port id="1" precision="FP16">
					<dim>1</dim>
					<dim>64</dim>
					<dim>1</dim>
					<dim>1</dim>
				</port>
			</output>
		</layer>
		<layer id="95" name="hourglass_hg_1_depth1_low1_1_conv3/BiasAdd" type="Add" version="opset1">
			<input>
				<port id="0">
					<dim>2</dim>
					<dim>64</dim>
					<dim>18</dim>
					<dim>30</dim>
				</port>
				<port id="1">
					<dim>1</dim>
					<dim>64</dim>
					<dim>1</dim>
					<dim>1</dim>
				</port>
			</input>
			<output>
				<port id="2" precision="FP16">
					<dim>2</dim>
					<dim>64</dim>
					<dim>18</dim>
					<dim>30</dim>
				</port>
			</output>
		</layer>
		<layer id="96" name="add_4/add" type="Add" version="opset1">
			<input>
				<port id="0">
					<dim>2</dim>
					<dim>64</dim>
					<dim>18</dim>
					<dim>30</dim>
				</port>
				<port id="1">
					<dim>2</dim>
					<dim>64</dim>
					<dim>18</dim>
					<dim>30</dim>
				</port>
			</input>
			<output>
				<port id="2" precision="FP16">
					<dim>2</dim>
					<dim>64</dim>
					<dim>18</dim>
					<dim>30</dim>
				</port>
			</output>
		</layer>
		<layer id="97" name="data_mul_179141791818674/EltwiseUnsqueeze19361_const" type="Const" version="opset1">
			<data element_type="f16" offset="224032" shape="1,64,1,1" size="128"/>
			<output>
				<port id="1" precision="FP16">
					<dim>1</dim>
					<dim>64</dim>
					<dim>1</dim>
					<dim>1</dim>
				</port>
			</output>
		</layer>
		<layer id="98" name="hourglass_hg_1_depth1_depth2_up1_1_conv1_BatchNorm/FusedBatchNormV3/mean/Fused_Mul_" type="Multiply" version="opset1">
			<input>
				<port id="0">
					<dim>2</dim>
					<dim>64</dim>
					<dim>18</dim>
					<dim>30</dim>
				</port>
				<port id="1">
					<dim>1</dim>
					<dim>64</dim>
					<dim>1</dim>
					<dim>1</dim>
				</port>
			</input>
			<output>
				<port id="2" precision="FP16">
					<dim>2</dim>
					<dim>64</dim>
					<dim>18</dim>
					<dim>30</dim>
				</port>
			</output>
		</layer>
		<layer id="99" name="data_add_179151792018675/EltwiseUnsqueeze19365_const" type="Const" version="opset1">
			<data element_type="f16" offset="224160" shape="1,64,1,1" size="128"/>
			<output>
				<port id="1" precision="FP16">
					<dim>1</dim>
					<dim>64</dim>
					<dim>1</dim>
					<dim>1</dim>
				</port>
			</output>
		</layer>
		<layer id="100" name="hourglass_hg_1_depth1_depth2_up1_1_conv1_BatchNorm/FusedBatchNormV3/variance/Fused_Add_" type="Add" version="opset1">
			<input>
				<port id="0">
					<dim>2</dim>
					<dim>64</dim>
					<dim>18</dim>
					<dim>30</dim>
				</port>
				<port id="1">
					<dim>1</dim>
					<dim>64</dim>
					<dim>1</dim>
					<dim>1</dim>
				</port>
			</input>
			<output>
				<port id="2" precision="FP16">
					<dim>2</dim>
					<dim>64</dim>
					<dim>18</dim>
					<dim>30</dim>
				</port>
			</output>
		</layer>
		<layer id="101" name="activation_14/Relu" type="ReLU" version="opset1">
			<input>
				<port id="0">
					<dim>2</dim>
					<dim>64</dim>
					<dim>18</dim>
					<dim>30</dim>
				</port>
			</input>
			<output>
				<port id="1" precision="FP16">
					<dim>2</dim>
					<dim>64</dim>
					<dim>18</dim>
					<dim>30</dim>
				</port>
			</output>
		</layer>
		<layer id="102" name="hourglass_hg_1_depth1_depth2_up1_1_conv1/BiasAdd_weights_fused_bn/Output_0/Data__const" type="Const" version="opset1">
			<data element_type="f16" offset="224288" shape="32,64,1,1" size="4096"/>
			<output>
				<port id="1" precision="FP16">
					<dim>32</dim>
					<dim>64</dim>
					<dim>1</dim>
					<dim>1</dim>
				</port>
			</output>
		</layer>
		<layer id="103" name="hourglass_hg_1_depth1_depth2_up1_1_conv1/BiasAdd/WithoutBiases" type="Convolution" version="opset1">
			<data dilations="1,1" output_padding="0,0" pads_begin="0,0" pads_end="0,0" strides="1,1"/>
			<input>
				<port id="0">
					<dim>2</dim>
					<dim>64</dim>
					<dim>18</dim>
					<dim>30</dim>
				</port>
				<port id="1">
					<dim>32</dim>
					<dim>64</dim>
					<dim>1</dim>
					<dim>1</dim>
				</port>
			</input>
			<output>
				<port id="2" precision="FP16">
					<dim>2</dim>
					<dim>32</dim>
					<dim>18</dim>
					<dim>30</dim>
				</port>
			</output>
		</layer>
		<layer id="104" name="hourglass_hg_1_depth1_depth2_up1_1_conv1/BiasAdd/Dims989118514/EltwiseUnsqueeze18865_const" type="Const" version="opset1">
			<data element_type="f16" offset="228384" shape="1,32,1,1" size="64"/>
			<output>
				<port id="1" precision="FP16">
					<dim>1</dim>
					<dim>32</dim>
					<dim>1</dim>
					<dim>1</dim>
				</port>
			</output>
		</layer>
		<layer id="105" name="hourglass_hg_1_depth1_depth2_up1_1_conv1/BiasAdd" type="Add" version="opset1">
			<input>
				<port id="0">
					<dim>2</dim>
					<dim>32</dim>
					<dim>18</dim>
					<dim>30</dim>
				</port>
				<port id="1">
					<dim>1</dim>
					<dim>32</dim>
					<dim>1</dim>
					<dim>1</dim>
				</port>
			</input>
			<output>
				<port id="2" precision="FP16">
					<dim>2</dim>
					<dim>32</dim>
					<dim>18</dim>
					<dim>30</dim>
				</port>
			</output>
		</layer>
		<layer id="106" name="activation_15/Relu" type="ReLU" version="opset1">
			<input>
				<port id="0">
					<dim>2</dim>
					<dim>32</dim>
					<dim>18</dim>
					<dim>30</dim>
				</port>
			</input>
			<output>
				<port id="1" precision="FP16">
					<dim>2</dim>
					<dim>32</dim>
					<dim>18</dim>
					<dim>30</dim>
				</port>
			</output>
		</layer>
		<layer id="107" name="hourglass_hg_1_depth1_depth2_up1_1_conv2/BiasAdd_weights_fused_bn/Output_0/Data__const" type="Const" version="opset1">
			<data element_type="f16" offset="228448" shape="32,32,3,3" size="18432"/>
			<output>
				<port id="1" precision="FP16">
					<dim>32</dim>
					<dim>32</dim>
					<dim>3</dim>
					<dim>3</dim>
				</port>
			</output>
		</layer>
		<layer id="108" name="hourglass_hg_1_depth1_depth2_up1_1_conv2/BiasAdd/WithoutBiases" type="Convolution" version="opset1">
			<data dilations="1,1" output_padding="0,0" pads_begin="1,1" pads_end="1,1" strides="1,1"/>
			<input>
				<port id="0">
					<dim>2</dim>
					<dim>32</dim>
					<dim>18</dim>
					<dim>30</dim>
				</port>
				<port id="1">
					<dim>32</dim>
					<dim>32</dim>
					<dim>3</dim>
					<dim>3</dim>
				</port>
			</input>
			<output>
				<port id="2" precision="FP16">
					<dim>2</dim>
					<dim>32</dim>
					<dim>18</dim>
					<dim>30</dim>
				</port>
			</output>
		</layer>
		<layer id="109" name="hourglass_hg_1_depth1_depth2_up1_1_conv2/BiasAdd/Dims973518488/EltwiseUnsqueeze18761_const" type="Const" version="opset1">
			<data element_type="f16" offset="246880" shape="1,32,1,1" size="64"/>
			<output>
				<port id="1" precision="FP16">
					<dim>1</dim>
					<dim>32</dim>
					<dim>1</dim>
					<dim>1</dim>
				</port>
			</output>
		</layer>
		<layer id="110" name="hourglass_hg_1_depth1_depth2_up1_1_conv2/BiasAdd" type="Add" version="opset1">
			<input>
				<port id="0">
					<dim>2</dim>
					<dim>32</dim>
					<dim>18</dim>
					<dim>30</dim>
				</port>
				<port id="1">
					<dim>1</dim>
					<dim>32</dim>
					<dim>1</dim>
					<dim>1</dim>
				</port>
			</input>
			<output>
				<port id="2" precision="FP16">
					<dim>2</dim>
					<dim>32</dim>
					<dim>18</dim>
					<dim>30</dim>
				</port>
			</output>
		</layer>
		<layer id="111" name="activation_16/Relu" type="ReLU" version="opset1">
			<input>
				<port id="0">
					<dim>2</dim>
					<dim>32</dim>
					<dim>18</dim>
					<dim>30</dim>
				</port>
			</input>
			<output>
				<port id="1" precision="FP16">
					<dim>2</dim>
					<dim>32</dim>
					<dim>18</dim>
					<dim>30</dim>
				</port>
			</output>
		</layer>
		<layer id="112" name="hourglass_hg_1_depth1_depth2_up1_1_conv3/Conv2D/ReadVariableOp:0/Output_0/Data__const" type="Const" version="opset1">
			<data element_type="f16" offset="246944" shape="64,32,1,1" size="4096"/>
			<output>
				<port id="1" precision="FP16">
					<dim>64</dim>
					<dim>32</dim>
					<dim>1</dim>
					<dim>1</dim>
				</port>
			</output>
		</layer>
		<layer id="113" name="hourglass_hg_1_depth1_depth2_up1_1_conv3/BiasAdd/WithoutBiases" type="Convolution" version="opset1">
			<data dilations="1,1" output_padding="0,0" pads_begin="0,0" pads_end="0,0" strides="1,1"/>
			<input>
				<port id="0">
					<dim>2</dim>
					<dim>32</dim>
					<dim>18</dim>
					<dim>30</dim>
				</port>
				<port id="1">
					<dim>64</dim>
					<dim>32</dim>
					<dim>1</dim>
					<dim>1</dim>
				</port>
			</input>
			<output>
				<port id="2" precision="FP16">
					<dim>2</dim>
					<dim>64</dim>
					<dim>18</dim>
					<dim>30</dim>
				</port>
			</output>
		</layer>
		<layer id="114" name="hourglass_hg_1_depth1_depth2_up1_1_conv3/BiasAdd/Dims1022718570/EltwiseUnsqueeze19089_const" type="Const" version="opset1">
			<data element_type="f16" offset="251040" shape="1,64,1,1" size="128"/>
			<output>
				<port id="1" precision="FP16">
					<dim>1</dim>
					<dim>64</dim>
					<dim>1</dim>
					<dim>1</dim>
				</port>
			</output>
		</layer>
		<layer id="115" name="hourglass_hg_1_depth1_depth2_up1_1_conv3/BiasAdd" type="Add" version="opset1">
			<input>
				<port id="0">
					<dim>2</dim>
					<dim>64</dim>
					<dim>18</dim>
					<dim>30</dim>
				</port>
				<port id="1">
					<dim>1</dim>
					<dim>64</dim>
					<dim>1</dim>
					<dim>1</dim>
				</port>
			</input>
			<output>
				<port id="2" precision="FP16">
					<dim>2</dim>
					<dim>64</dim>
					<dim>18</dim>
					<dim>30</dim>
				</port>
			</output>
		</layer>
		<layer id="116" name="add_5/add" type="Add" version="opset1">
			<input>
				<port id="0">
					<dim>2</dim>
					<dim>64</dim>
					<dim>18</dim>
					<dim>30</dim>
				</port>
				<port id="1">
					<dim>2</dim>
					<dim>64</dim>
					<dim>18</dim>
					<dim>30</dim>
				</port>
			</input>
			<output>
				<port id="2" precision="FP16">
					<dim>2</dim>
					<dim>64</dim>
					<dim>18</dim>
					<dim>30</dim>
				</port>
			</output>
		</layer>
		<layer id="117" name="max_pooling2d_2/MaxPool" type="MaxPool" version="opset1">
			<data kernel="2,2" pads_begin="0,0" pads_end="0,0" rounding_type="floor" strides="2,2"/>
			<input>
				<port id="0">
					<dim>2</dim>
					<dim>64</dim>
					<dim>18</dim>
					<dim>30</dim>
				</port>
			</input>
			<output>
				<port id="1" precision="FP16">
					<dim>2</dim>
					<dim>64</dim>
					<dim>9</dim>
					<dim>15</dim>
				</port>
			</output>
		</layer>
		<layer id="118" name="data_mul_179221792618676/EltwiseUnsqueeze19369_const" type="Const" version="opset1">
			<data element_type="f16" offset="251168" shape="1,64,1,1" size="128"/>
			<output>
				<port id="1" precision="FP16">
					<dim>1</dim>
					<dim>64</dim>
					<dim>1</dim>
					<dim>1</dim>
				</port>
			</output>
		</layer>
		<layer id="119" name="hourglass_hg_1_depth1_depth2_low1_1_conv1_BatchNorm/FusedBatchNormV3/mean/Fused_Mul_" type="Multiply" version="opset1">
			<input>
				<port id="0">
					<dim>2</dim>
					<dim>64</dim>
					<dim>9</dim>
					<dim>15</dim>
				</port>
				<port id="1">
					<dim>1</dim>
					<dim>64</dim>
					<dim>1</dim>
					<dim>1</dim>
				</port>
			</input>
			<output>
				<port id="2" precision="FP16">
					<dim>2</dim>
					<dim>64</dim>
					<dim>9</dim>
					<dim>15</dim>
				</port>
			</output>
		</layer>
		<layer id="120" name="data_add_179231792818677/EltwiseUnsqueeze19373_const" type="Const" version="opset1">
			<data element_type="f16" offset="251296" shape="1,64,1,1" size="128"/>
			<output>
				<port id="1" precision="FP16">
					<dim>1</dim>
					<dim>64</dim>
					<dim>1</dim>
					<dim>1</dim>
				</port>
			</output>
		</layer>
		<layer id="121" name="hourglass_hg_1_depth1_depth2_low1_1_conv1_BatchNorm/FusedBatchNormV3/variance/Fused_Add_" type="Add" version="opset1">
			<input>
				<port id="0">
					<dim>2</dim>
					<dim>64</dim>
					<dim>9</dim>
					<dim>15</dim>
				</port>
				<port id="1">
					<dim>1</dim>
					<dim>64</dim>
					<dim>1</dim>
					<dim>1</dim>
				</port>
			</input>
			<output>
				<port id="2" precision="FP16">
					<dim>2</dim>
					<dim>64</dim>
					<dim>9</dim>
					<dim>15</dim>
				</port>
			</output>
		</layer>
		<layer id="122" name="activation_17/Relu" type="ReLU" version="opset1">
			<input>
				<port id="0">
					<dim>2</dim>
					<dim>64</dim>
					<dim>9</dim>
					<dim>15</dim>
				</port>
			</input>
			<output>
				<port id="1" precision="FP16">
					<dim>2</dim>
					<dim>64</dim>
					<dim>9</dim>
					<dim>15</dim>
				</port>
			</output>
		</layer>
		<layer id="123" name="hourglass_hg_1_depth1_depth2_low1_1_conv1/BiasAdd_weights_fused_bn/Output_0/Data__const" type="Const" version="opset1">
			<data element_type="f16" offset="251424" shape="32,64,1,1" size="4096"/>
			<output>
				<port id="1" precision="FP16">
					<dim>32</dim>
					<dim>64</dim>
					<dim>1</dim>
					<dim>1</dim>
				</port>
			</output>
		</layer>
		<layer id="124" name="hourglass_hg_1_depth1_depth2_low1_1_conv1/BiasAdd/WithoutBiases" type="Convolution" version="opset1">
			<data dilations="1,1" output_padding="0,0" pads_begin="0,0" pads_end="0,0" strides="1,1"/>
			<input>
				<port id="0">
					<dim>2</dim>
					<dim>64</dim>
					<dim>9</dim>
					<dim>15</dim>
				</port>
				<port id="1">
					<dim>32</dim>
					<dim>64</dim>
					<dim>1</dim>
					<dim>1</dim>
				</port>
			</input>
			<output>
				<port id="2" precision="FP16">
					<dim>2</dim>
					<dim>32</dim>
					<dim>9</dim>
					<dim>15</dim>
				</port>
			</output>
		</layer>
		<layer id="125" name="hourglass_hg_1_depth1_depth2_low1_1_conv1/BiasAdd/Dims1010118549/EltwiseUnsqueeze19005_const" type="Const" version="opset1">
			<data element_type="f16" offset="255520" shape="1,32,1,1" size="64"/>
			<output>
				<port id="1" precision="FP16">
					<dim>1</dim>
					<dim>32</dim>
					<dim>1</dim>
					<dim>1</dim>
				</port>
			</output>
		</layer>
		<layer id="126" name="hourglass_hg_1_depth1_depth2_low1_1_conv1/BiasAdd" type="Add" version="opset1">
			<input>
				<port id="0">
					<dim>2</dim>
					<dim>32</dim>
					<dim>9</dim>
					<dim>15</dim>
				</port>
				<port id="1">
					<dim>1</dim>
					<dim>32</dim>
					<dim>1</dim>
					<dim>1</dim>
				</port>
			</input>
			<output>
				<port id="2" precision="FP16">
					<dim>2</dim>
					<dim>32</dim>
					<dim>9</dim>
					<dim>15</dim>
				</port>
			</output>
		</layer>
		<layer id="127" name="activation_18/Relu" type="ReLU" version="opset1">
			<input>
				<port id="0">
					<dim>2</dim>
					<dim>32</dim>
					<dim>9</dim>
					<dim>15</dim>
				</port>
			</input>
			<output>
				<port id="1" precision="FP16">
					<dim>2</dim>
					<dim>32</dim>
					<dim>9</dim>
					<dim>15</dim>
				</port>
			</output>
		</layer>
		<layer id="128" name="hourglass_hg_1_depth1_depth2_low1_1_conv2/BiasAdd_weights_fused_bn/Output_0/Data__const" type="Const" version="opset1">
			<data element_type="f16" offset="255584" shape="32,32,3,3" size="18432"/>
			<output>
				<port id="1" precision="FP16">
					<dim>32</dim>
					<dim>32</dim>
					<dim>3</dim>
					<dim>3</dim>
				</port>
			</output>
		</layer>
		<layer id="129" name="hourglass_hg_1_depth1_depth2_low1_1_conv2/BiasAdd/WithoutBiases" type="Convolution" version="opset1">
			<data dilations="1,1" output_padding="0,0" pads_begin="1,1" pads_end="1,1" strides="1,1"/>
			<input>
				<port id="0">
					<dim>2</dim>
					<dim>32</dim>
					<dim>9</dim>
					<dim>15</dim>
				</port>
				<port id="1">
					<dim>32</dim>
					<dim>32</dim>
					<dim>3</dim>
					<dim>3</dim>
				</port>
			</input>
			<output>
				<port id="2" precision="FP16">
					<dim>2</dim>
					<dim>32</dim>
					<dim>9</dim>
					<dim>15</dim>
				</port>
			</output>
		</layer>
		<layer id="130" name="hourglass_hg_1_depth1_depth2_low1_1_conv2/BiasAdd/Dims999318531/EltwiseUnsqueeze18933_const" type="Const" version="opset1">
			<data element_type="f16" offset="274016" shape="1,32,1,1" size="64"/>
			<output>
				<port id="1" precision="FP16">
					<dim>1</dim>
					<dim>32</dim>
					<dim>1</dim>
					<dim>1</dim>
				</port>
			</output>
		</layer>
		<layer id="131" name="hourglass_hg_1_depth1_depth2_low1_1_conv2/BiasAdd" type="Add" version="opset1">
			<input>
				<port id="0">
					<dim>2</dim>
					<dim>32</dim>
					<dim>9</dim>
					<dim>15</dim>
				</port>
				<port id="1">
					<dim>1</dim>
					<dim>32</dim>
					<dim>1</dim>
					<dim>1</dim>
				</port>
			</input>
			<output>
				<port id="2" precision="FP16">
					<dim>2</dim>
					<dim>32</dim>
					<dim>9</dim>
					<dim>15</dim>
				</port>
			</output>
		</layer>
		<layer id="132" name="activation_19/Relu" type="ReLU" version="opset1">
			<input>
				<port id="0">
					<dim>2</dim>
					<dim>32</dim>
					<dim>9</dim>
					<dim>15</dim>
				</port>
			</input>
			<output>
				<port id="1" precision="FP16">
					<dim>2</dim>
					<dim>32</dim>
					<dim>9</dim>
					<dim>15</dim>
				</port>
			</output>
		</layer>
		<layer id="133" name="hourglass_hg_1_depth1_depth2_low1_1_conv3/Conv2D/ReadVariableOp:0/Output_0/Data__const" type="Const" version="opset1">
			<data element_type="f16" offset="274080" shape="64,32,1,1" size="4096"/>
			<output>
				<port id="1" precision="FP16">
					<dim>64</dim>
					<dim>32</dim>
					<dim>1</dim>
					<dim>1</dim>
				</port>
			</output>
		</layer>
		<layer id="134" name="hourglass_hg_1_depth1_depth2_low1_1_conv3/BiasAdd/WithoutBiases" type="Convolution" version="opset1">
			<data dilations="1,1" output_padding="0,0" pads_begin="0,0" pads_end="0,0" strides="1,1"/>
			<input>
				<port id="0">
					<dim>2</dim>
					<dim>32</dim>
					<dim>9</dim>
					<dim>15</dim>
				</port>
				<port id="1">
					<dim>64</dim>
					<dim>32</dim>
					<dim>1</dim>
					<dim>1</dim>
				</port>
			</input>
			<output>
				<port id="2" precision="FP16">
					<dim>2</dim>
					<dim>64</dim>
					<dim>9</dim>
					<dim>15</dim>
				</port>
			</output>
		</layer>
		<layer id="135" name="hourglass_hg_1_depth1_depth2_low1_1_conv3/BiasAdd/Dims995118524/EltwiseUnsqueeze18905_const" type="Const" version="opset1">
			<data element_type="f16" offset="278176" shape="1,64,1,1" size="128"/>
			<output>
				<port id="1" precision="FP16">
					<dim>1</dim>
					<dim>64</dim>
					<dim>1</dim>
					<dim>1</dim>
				</port>
			</output>
		</layer>
		<layer id="136" name="hourglass_hg_1_depth1_depth2_low1_1_conv3/BiasAdd" type="Add" version="opset1">
			<input>
				<port id="0">
					<dim>2</dim>
					<dim>64</dim>
					<dim>9</dim>
					<dim>15</dim>
				</port>
				<port id="1">
					<dim>1</dim>
					<dim>64</dim>
					<dim>1</dim>
					<dim>1</dim>
				</port>
			</input>
			<output>
				<port id="2" precision="FP16">
					<dim>2</dim>
					<dim>64</dim>
					<dim>9</dim>
					<dim>15</dim>
				</port>
			</output>
		</layer>
		<layer id="137" name="add_6/add" type="Add" version="opset1">
			<input>
				<port id="0">
					<dim>2</dim>
					<dim>64</dim>
					<dim>9</dim>
					<dim>15</dim>
				</port>
				<port id="1">
					<dim>2</dim>
					<dim>64</dim>
					<dim>9</dim>
					<dim>15</dim>
				</port>
			</input>
			<output>
				<port id="2" precision="FP16">
					<dim>2</dim>
					<dim>64</dim>
					<dim>9</dim>
					<dim>15</dim>
				</port>
			</output>
		</layer>
		<layer id="138" name="data_mul_179301793418678/EltwiseUnsqueeze19377_const" type="Const" version="opset1">
			<data element_type="f16" offset="278304" shape="1,64,1,1" size="128"/>
			<output>
				<port id="1" precision="FP16">
					<dim>1</dim>
					<dim>64</dim>
					<dim>1</dim>
					<dim>1</dim>
				</port>
			</output>
		</layer>
		<layer id="139" name="hourglass_hg_1_depth1_depth2_depth3_up1_1_conv1_BatchNorm/FusedBatchNormV3/mean/Fused_Mul_" type="Multiply" version="opset1">
			<input>
				<port id="0">
					<dim>2</dim>
					<dim>64</dim>
					<dim>9</dim>
					<dim>15</dim>
				</port>
				<port id="1">
					<dim>1</dim>
					<dim>64</dim>
					<dim>1</dim>
					<dim>1</dim>
				</port>
			</input>
			<output>
				<port id="2" precision="FP16">
					<dim>2</dim>
					<dim>64</dim>
					<dim>9</dim>
					<dim>15</dim>
				</port>
			</output>
		</layer>
		<layer id="140" name="data_add_179311793618679/EltwiseUnsqueeze19381_const" type="Const" version="opset1">
			<data element_type="f16" offset="278432" shape="1,64,1,1" size="128"/>
			<output>
				<port id="1" precision="FP16">
					<dim>1</dim>
					<dim>64</dim>
					<dim>1</dim>
					<dim>1</dim>
				</port>
			</output>
		</layer>
		<layer id="141" name="hourglass_hg_1_depth1_depth2_depth3_up1_1_conv1_BatchNorm/FusedBatchNormV3/variance/Fused_Add_" type="Add" version="opset1">
			<input>
				<port id="0">
					<dim>2</dim>
					<dim>64</dim>
					<dim>9</dim>
					<dim>15</dim>
				</port>
				<port id="1">
					<dim>1</dim>
					<dim>64</dim>
					<dim>1</dim>
					<dim>1</dim>
				</port>
			</input>
			<output>
				<port id="2" precision="FP16">
					<dim>2</dim>
					<dim>64</dim>
					<dim>9</dim>
					<dim>15</dim>
				</port>
			</output>
		</layer>
		<layer id="142" name="activation_20/Relu" type="ReLU" version="opset1">
			<input>
				<port id="0">
					<dim>2</dim>
					<dim>64</dim>
					<dim>9</dim>
					<dim>15</dim>
				</port>
			</input>
			<output>
				<port id="1" precision="FP16">
					<dim>2</dim>
					<dim>64</dim>
					<dim>9</dim>
					<dim>15</dim>
				</port>
			</output>
		</layer>
		<layer id="143" name="hourglass_hg_1_depth1_depth2_depth3_up1_1_conv1/BiasAdd_weights_fused_bn/Output_0/Data__const" type="Const" version="opset1">
			<data element_type="f16" offset="278560" shape="32,64,1,1" size="4096"/>
			<output>
				<port id="1" precision="FP16">
					<dim>32</dim>
					<dim>64</dim>
					<dim>1</dim>
					<dim>1</dim>
				</port>
			</output>
		</layer>
		<layer id="144" name="hourglass_hg_1_depth1_depth2_depth3_up1_1_conv1/BiasAdd/WithoutBiases" type="Convolution" version="opset1">
			<data dilations="1,1" output_padding="0,0" pads_begin="0,0" pads_end="0,0" strides="1,1"/>
			<input>
				<port id="0">
					<dim>2</dim>
					<dim>64</dim>
					<dim>9</dim>
					<dim>15</dim>
				</port>
				<port id="1">
					<dim>32</dim>
					<dim>64</dim>
					<dim>1</dim>
					<dim>1</dim>
				</port>
			</input>
			<output>
				<port id="2" precision="FP16">
					<dim>2</dim>
					<dim>32</dim>
					<dim>9</dim>
					<dim>15</dim>
				</port>
			</output>
		</layer>
		<layer id="145" name="hourglass_hg_1_depth1_depth2_depth3_up1_1_conv1/BiasAdd/Dims1050918617/EltwiseUnsqueeze19277_const" type="Const" version="opset1">
			<data element_type="f16" offset="282656" shape="1,32,1,1" size="64"/>
			<output>
				<port id="1" precision="FP16">
					<dim>1</dim>
					<dim>32</dim>
					<dim>1</dim>
					<dim>1</dim>
				</port>
			</output>
		</layer>
		<layer id="146" name="hourglass_hg_1_depth1_depth2_depth3_up1_1_conv1/BiasAdd" type="Add" version="opset1">
			<input>
				<port id="0">
					<dim>2</dim>
					<dim>32</dim>
					<dim>9</dim>
					<dim>15</dim>
				</port>
				<port id="1">
					<dim>1</dim>
					<dim>32</dim>
					<dim>1</dim>
					<dim>1</dim>
				</port>
			</input>
			<output>
				<port id="2" precision="FP16">
					<dim>2</dim>
					<dim>32</dim>
					<dim>9</dim>
					<dim>15</dim>
				</port>
			</output>
		</layer>
		<layer id="147" name="activation_21/Relu" type="ReLU" version="opset1">
			<input>
				<port id="0">
					<dim>2</dim>
					<dim>32</dim>
					<dim>9</dim>
					<dim>15</dim>
				</port>
			</input>
			<output>
				<port id="1" precision="FP16">
					<dim>2</dim>
					<dim>32</dim>
					<dim>9</dim>
					<dim>15</dim>
				</port>
			</output>
		</layer>
		<layer id="148" name="hourglass_hg_1_depth1_depth2_depth3_up1_1_conv2/BiasAdd_weights_fused_bn/Output_0/Data__const" type="Const" version="opset1">
			<data element_type="f16" offset="282720" shape="32,32,3,3" size="18432"/>
			<output>
				<port id="1" precision="FP16">
					<dim>32</dim>
					<dim>32</dim>
					<dim>3</dim>
					<dim>3</dim>
				</port>
			</output>
		</layer>
		<layer id="149" name="hourglass_hg_1_depth1_depth2_depth3_up1_1_conv2/BiasAdd/WithoutBiases" type="Convolution" version="opset1">
			<data dilations="1,1" output_padding="0,0" pads_begin="1,1" pads_end="1,1" strides="1,1"/>
			<input>
				<port id="0">
					<dim>2</dim>
					<dim>32</dim>
					<dim>9</dim>
					<dim>15</dim>
				</port>
				<port id="1">
					<dim>32</dim>
					<dim>32</dim>
					<dim>3</dim>
					<dim>3</dim>
				</port>
			</input>
			<output>
				<port id="2" precision="FP16">
					<dim>2</dim>
					<dim>32</dim>
					<dim>9</dim>
					<dim>15</dim>
				</port>
			</output>
		</layer>
		<layer id="150" name="hourglass_hg_1_depth1_depth2_depth3_up1_1_conv2/BiasAdd/Dims1052718620/EltwiseUnsqueeze19289_const" type="Const" version="opset1">
			<data element_type="f16" offset="301152" shape="1,32,1,1" size="64"/>
			<output>
				<port id="1" precision="FP16">
					<dim>1</dim>
					<dim>32</dim>
					<dim>1</dim>
					<dim>1</dim>
				</port>
			</output>
		</layer>
		<layer id="151" name="hourglass_hg_1_depth1_depth2_depth3_up1_1_conv2/BiasAdd" type="Add" version="opset1">
			<input>
				<port id="0">
					<dim>2</dim>
					<dim>32</dim>
					<dim>9</dim>
					<dim>15</dim>
				</port>
				<port id="1">
					<dim>1</dim>
					<dim>32</dim>
					<dim>1</dim>
					<dim>1</dim>
				</port>
			</input>
			<output>
				<port id="2" precision="FP16">
					<dim>2</dim>
					<dim>32</dim>
					<dim>9</dim>
					<dim>15</dim>
				</port>
			</output>
		</layer>
		<layer id="152" name="activation_22/Relu" type="ReLU" version="opset1">
			<input>
				<port id="0">
					<dim>2</dim>
					<dim>32</dim>
					<dim>9</dim>
					<dim>15</dim>
				</port>
			</input>
			<output>
				<port id="1" precision="FP16">
					<dim>2</dim>
					<dim>32</dim>
					<dim>9</dim>
					<dim>15</dim>
				</port>
			</output>
		</layer>
		<layer id="153" name="hourglass_hg_1_depth1_depth2_depth3_up1_1_conv3/Conv2D/ReadVariableOp:0/Output_0/Data__const" type="Const" version="opset1">
			<data element_type="f16" offset="301216" shape="64,32,1,1" size="4096"/>
			<output>
				<port id="1" precision="FP16">
					<dim>64</dim>
					<dim>32</dim>
					<dim>1</dim>
					<dim>1</dim>
				</port>
			</output>
		</layer>
		<layer id="154" name="hourglass_hg_1_depth1_depth2_depth3_up1_1_conv3/BiasAdd/WithoutBiases" type="Convolution" version="opset1">
			<data dilations="1,1" output_padding="0,0" pads_begin="0,0" pads_end="0,0" strides="1,1"/>
			<input>
				<port id="0">
					<dim>2</dim>
					<dim>32</dim>
					<dim>9</dim>
					<dim>15</dim>
				</port>
				<port id="1">
					<dim>64</dim>
					<dim>32</dim>
					<dim>1</dim>
					<dim>1</dim>
				</port>
			</input>
			<output>
				<port id="2" precision="FP16">
					<dim>2</dim>
					<dim>64</dim>
					<dim>9</dim>
					<dim>15</dim>
				</port>
			</output>
		</layer>
		<layer id="155" name="hourglass_hg_1_depth1_depth2_depth3_up1_1_conv3/BiasAdd/Dims1016718560/EltwiseUnsqueeze19049_const" type="Const" version="opset1">
			<data element_type="f16" offset="305312" shape="1,64,1,1" size="128"/>
			<output>
				<port id="1" precision="FP16">
					<dim>1</dim>
					<dim>64</dim>
					<dim>1</dim>
					<dim>1</dim>
				</port>
			</output>
		</layer>
		<layer id="156" name="hourglass_hg_1_depth1_depth2_depth3_up1_1_conv3/BiasAdd" type="Add" version="opset1">
			<input>
				<port id="0">
					<dim>2</dim>
					<dim>64</dim>
					<dim>9</dim>
					<dim>15</dim>
				</port>
				<port id="1">
					<dim>1</dim>
					<dim>64</dim>
					<dim>1</dim>
					<dim>1</dim>
				</port>
			</input>
			<output>
				<port id="2" precision="FP16">
					<dim>2</dim>
					<dim>64</dim>
					<dim>9</dim>
					<dim>15</dim>
				</port>
			</output>
		</layer>
		<layer id="157" name="add_7/add" type="Add" version="opset1">
			<input>
				<port id="0">
					<dim>2</dim>
					<dim>64</dim>
					<dim>9</dim>
					<dim>15</dim>
				</port>
				<port id="1">
					<dim>2</dim>
					<dim>64</dim>
					<dim>9</dim>
					<dim>15</dim>
				</port>
			</input>
			<output>
				<port id="2" precision="FP16">
					<dim>2</dim>
					<dim>64</dim>
					<dim>9</dim>
					<dim>15</dim>
				</port>
			</output>
		</layer>
		<layer id="158" name="max_pooling2d_3/MaxPool" type="MaxPool" version="opset1">
			<data kernel="2,2" pads_begin="0,0" pads_end="1,1" rounding_type="floor" strides="2,2"/>
			<input>
				<port id="0">
					<dim>2</dim>
					<dim>64</dim>
					<dim>9</dim>
					<dim>15</dim>
				</port>
			</input>
			<output>
				<port id="1" precision="FP16">
					<dim>2</dim>
					<dim>64</dim>
					<dim>5</dim>
					<dim>8</dim>
				</port>
			</output>
		</layer>
		<layer id="159" name="data_mul_179381794218680/EltwiseUnsqueeze19385_const" type="Const" version="opset1">
			<data element_type="f16" offset="305440" shape="1,64,1,1" size="128"/>
			<output>
				<port id="1" precision="FP16">
					<dim>1</dim>
					<dim>64</dim>
					<dim>1</dim>
					<dim>1</dim>
				</port>
			</output>
		</layer>
		<layer id="160" name="hourglass_hg_1_depth1_depth2_depth3_low1_1_conv1_BatchNorm/FusedBatchNormV3/mean/Fused_Mul_" type="Multiply" version="opset1">
			<input>
				<port id="0">
					<dim>2</dim>
					<dim>64</dim>
					<dim>5</dim>
					<dim>8</dim>
				</port>
				<port id="1">
					<dim>1</dim>
					<dim>64</dim>
					<dim>1</dim>
					<dim>1</dim>
				</port>
			</input>
			<output>
				<port id="2" precision="FP16">
					<dim>2</dim>
					<dim>64</dim>
					<dim>5</dim>
					<dim>8</dim>
				</port>
			</output>
		</layer>
		<layer id="161" name="data_add_179391794418681/EltwiseUnsqueeze19389_const" type="Const" version="opset1">
			<data element_type="f16" offset="305568" shape="1,64,1,1" size="128"/>
			<output>
				<port id="1" precision="FP16">
					<dim>1</dim>
					<dim>64</dim>
					<dim>1</dim>
					<dim>1</dim>
				</port>
			</output>
		</layer>
		<layer id="162" name="hourglass_hg_1_depth1_depth2_depth3_low1_1_conv1_BatchNorm/FusedBatchNormV3/variance/Fused_Add_" type="Add" version="opset1">
			<input>
				<port id="0">
					<dim>2</dim>
					<dim>64</dim>
					<dim>5</dim>
					<dim>8</dim>
				</port>
				<port id="1">
					<dim>1</dim>
					<dim>64</dim>
					<dim>1</dim>
					<dim>1</dim>
				</port>
			</input>
			<output>
				<port id="2" precision="FP16">
					<dim>2</dim>
					<dim>64</dim>
					<dim>5</dim>
					<dim>8</dim>
				</port>
			</output>
		</layer>
		<layer id="163" name="activation_23/Relu" type="ReLU" version="opset1">
			<input>
				<port id="0">
					<dim>2</dim>
					<dim>64</dim>
					<dim>5</dim>
					<dim>8</dim>
				</port>
			</input>
			<output>
				<port id="1" precision="FP16">
					<dim>2</dim>
					<dim>64</dim>
					<dim>5</dim>
					<dim>8</dim>
				</port>
			</output>
		</layer>
		<layer id="164" name="hourglass_hg_1_depth1_depth2_depth3_low1_1_conv1/BiasAdd_weights_fused_bn/Output_0/Data__const" type="Const" version="opset1">
			<data element_type="f16" offset="305696" shape="32,64,1,1" size="4096"/>
			<output>
				<port id="1" precision="FP16">
					<dim>32</dim>
					<dim>64</dim>
					<dim>1</dim>
					<dim>1</dim>
				</port>
			</output>
		</layer>
		<layer id="165" name="hourglass_hg_1_depth1_depth2_depth3_low1_1_conv1/BiasAdd/WithoutBiases" type="Convolution" version="opset1">
			<data dilations="1,1" output_padding="0,0" pads_begin="0,0" pads_end="0,0" strides="1,1"/>
			<input>
				<port id="0">
					<dim>2</dim>
					<dim>64</dim>
					<dim>5</dim>
					<dim>8</dim>
				</port>
				<port id="1">
					<dim>32</dim>
					<dim>64</dim>
					<dim>1</dim>
					<dim>1</dim>
				</port>
			</input>
			<output>
				<port id="2" precision="FP16">
					<dim>2</dim>
					<dim>32</dim>
					<dim>5</dim>
					<dim>8</dim>
				</port>
			</output>
		</layer>
		<layer id="166" name="hourglass_hg_1_depth1_depth2_depth3_low1_1_conv1/BiasAdd/Dims1029918582/EltwiseUnsqueeze19137_const" type="Const" version="opset1">
			<data element_type="f16" offset="309792" shape="1,32,1,1" size="64"/>
			<output>
				<port id="1" precision="FP16">
					<dim>1</dim>
					<dim>32</dim>
					<dim>1</dim>
					<dim>1</dim>
				</port>
			</output>
		</layer>
		<layer id="167" name="hourglass_hg_1_depth1_depth2_depth3_low1_1_conv1/BiasAdd" type="Add" version="opset1">
			<input>
				<port id="0">
					<dim>2</dim>
					<dim>32</dim>
					<dim>5</dim>
					<dim>8</dim>
				</port>
				<port id="1">
					<dim>1</dim>
					<dim>32</dim>
					<dim>1</dim>
					<dim>1</dim>
				</port>
			</input>
			<output>
				<port id="2" precision="FP16">
					<dim>2</dim>
					<dim>32</dim>
					<dim>5</dim>
					<dim>8</dim>
				</port>
			</output>
		</layer>
		<layer id="168" name="activation_24/Relu" type="ReLU" version="opset1">
			<input>
				<port id="0">
					<dim>2</dim>
					<dim>32</dim>
					<dim>5</dim>
					<dim>8</dim>
				</port>
			</input>
			<output>
				<port id="1" precision="FP16">
					<dim>2</dim>
					<dim>32</dim>
					<dim>5</dim>
					<dim>8</dim>
				</port>
			</output>
		</layer>
		<layer id="169" name="hourglass_hg_1_depth1_depth2_depth3_low1_1_conv2/BiasAdd_weights_fused_bn/Output_0/Data__const" type="Const" version="opset1">
			<data element_type="f16" offset="309856" shape="32,32,3,3" size="18432"/>
			<output>
				<port id="1" precision="FP16">
					<dim>32</dim>
					<dim>32</dim>
					<dim>3</dim>
					<dim>3</dim>
				</port>
			</output>
		</layer>
		<layer id="170" name="hourglass_hg_1_depth1_depth2_depth3_low1_1_conv2/BiasAdd/WithoutBiases" type="Convolution" version="opset1">
			<data dilations="1,1" output_padding="0,0" pads_begin="1,1" pads_end="1,1" strides="1,1"/>
			<input>
				<port id="0">
					<dim>2</dim>
					<dim>32</dim>
					<dim>5</dim>
					<dim>8</dim>
				</port>
				<port id="1">
					<dim>32</dim>
					<dim>32</dim>
					<dim>3</dim>
					<dim>3</dim>
				</port>
			</input>
			<output>
				<port id="2" precision="FP16">
					<dim>2</dim>
					<dim>32</dim>
					<dim>5</dim>
					<dim>8</dim>
				</port>
			</output>
		</layer>
		<layer id="171" name="hourglass_hg_1_depth1_depth2_depth3_low1_1_conv2/BiasAdd/Dims1050318616/EltwiseUnsqueeze19273_const" type="Const" version="opset1">
			<data element_type="f16" offset="328288" shape="1,32,1,1" size="64"/>
			<output>
				<port id="1" precision="FP16">
					<dim>1</dim>
					<dim>32</dim>
					<dim>1</dim>
					<dim>1</dim>
				</port>
			</output>
		</layer>
		<layer id="172" name="hourglass_hg_1_depth1_depth2_depth3_low1_1_conv2/BiasAdd" type="Add" version="opset1">
			<input>
				<port id="0">
					<dim>2</dim>
					<dim>32</dim>
					<dim>5</dim>
					<dim>8</dim>
				</port>
				<port id="1">
					<dim>1</dim>
					<dim>32</dim>
					<dim>1</dim>
					<dim>1</dim>
				</port>
			</input>
			<output>
				<port id="2" precision="FP16">
					<dim>2</dim>
					<dim>32</dim>
					<dim>5</dim>
					<dim>8</dim>
				</port>
			</output>
		</layer>
		<layer id="173" name="activation_25/Relu" type="ReLU" version="opset1">
			<input>
				<port id="0">
					<dim>2</dim>
					<dim>32</dim>
					<dim>5</dim>
					<dim>8</dim>
				</port>
			</input>
			<output>
				<port id="1" precision="FP16">
					<dim>2</dim>
					<dim>32</dim>
					<dim>5</dim>
					<dim>8</dim>
				</port>
			</output>
		</layer>
		<layer id="174" name="hourglass_hg_1_depth1_depth2_depth3_low1_1_conv3/Conv2D/ReadVariableOp:0/Output_0/Data__const" type="Const" version="opset1">
			<data element_type="f16" offset="328352" shape="64,32,1,1" size="4096"/>
			<output>
				<port id="1" precision="FP16">
					<dim>64</dim>
					<dim>32</dim>
					<dim>1</dim>
					<dim>1</dim>
				</port>
			</output>
		</layer>
		<layer id="175" name="hourglass_hg_1_depth1_depth2_depth3_low1_1_conv3/BiasAdd/WithoutBiases" type="Convolution" version="opset1">
			<data dilations="1,1" output_padding="0,0" pads_begin="0,0" pads_end="0,0" strides="1,1"/>
			<input>
				<port id="0">
					<dim>2</dim>
					<dim>32</dim>
					<dim>5</dim>
					<dim>8</dim>
				</port>
				<port id="1">
					<dim>64</dim>
					<dim>32</dim>
					<dim>1</dim>
					<dim>1</dim>
				</port>
			</input>
			<output>
				<port id="2" precision="FP16">
					<dim>2</dim>
					<dim>64</dim>
					<dim>5</dim>
					<dim>8</dim>
				</port>
			</output>
		</layer>
		<layer id="176" name="hourglass_hg_1_depth1_depth2_depth3_low1_1_conv3/BiasAdd/Dims999918532/EltwiseUnsqueeze18937_const" type="Const" version="opset1">
			<data element_type="f16" offset="332448" shape="1,64,1,1" size="128"/>
			<output>
				<port id="1" precision="FP16">
					<dim>1</dim>
					<dim>64</dim>
					<dim>1</dim>
					<dim>1</dim>
				</port>
			</output>
		</layer>
		<layer id="177" name="hourglass_hg_1_depth1_depth2_depth3_low1_1_conv3/BiasAdd" type="Add" version="opset1">
			<input>
				<port id="0">
					<dim>2</dim>
					<dim>64</dim>
					<dim>5</dim>
					<dim>8</dim>
				</port>
				<port id="1">
					<dim>1</dim>
					<dim>64</dim>
					<dim>1</dim>
					<dim>1</dim>
				</port>
			</input>
			<output>
				<port id="2" precision="FP16">
					<dim>2</dim>
					<dim>64</dim>
					<dim>5</dim>
					<dim>8</dim>
				</port>
			</output>
		</layer>
		<layer id="178" name="add_8/add" type="Add" version="opset1">
			<input>
				<port id="0">
					<dim>2</dim>
					<dim>64</dim>
					<dim>5</dim>
					<dim>8</dim>
				</port>
				<port id="1">
					<dim>2</dim>
					<dim>64</dim>
					<dim>5</dim>
					<dim>8</dim>
				</port>
			</input>
			<output>
				<port id="2" precision="FP16">
					<dim>2</dim>
					<dim>64</dim>
					<dim>5</dim>
					<dim>8</dim>
				</port>
			</output>
		</layer>
		<layer id="179" name="data_mul_179461795018682/EltwiseUnsqueeze19393_const" type="Const" version="opset1">
			<data element_type="f16" offset="332576" shape="1,64,1,1" size="128"/>
			<output>
				<port id="1" precision="FP16">
					<dim>1</dim>
					<dim>64</dim>
					<dim>1</dim>
					<dim>1</dim>
				</port>
			</output>
		</layer>
		<layer id="180" name="hourglass_hg_1_depth1_depth2_depth3_depth4_up1_1_conv1_BatchNorm/FusedBatchNormV3/mean/Fused_Mul_" type="Multiply" version="opset1">
			<input>
				<port id="0">
					<dim>2</dim>
					<dim>64</dim>
					<dim>5</dim>
					<dim>8</dim>
				</port>
				<port id="1">
					<dim>1</dim>
					<dim>64</dim>
					<dim>1</dim>
					<dim>1</dim>
				</port>
			</input>
			<output>
				<port id="2" precision="FP16">
					<dim>2</dim>
					<dim>64</dim>
					<dim>5</dim>
					<dim>8</dim>
				</port>
			</output>
		</layer>
		<layer id="181" name="data_add_179471795218683/EltwiseUnsqueeze19397_const" type="Const" version="opset1">
			<data element_type="f16" offset="332704" shape="1,64,1,1" size="128"/>
			<output>
				<port id="1" precision="FP16">
					<dim>1</dim>
					<dim>64</dim>
					<dim>1</dim>
					<dim>1</dim>
				</port>
			</output>
		</layer>
		<layer id="182" name="hourglass_hg_1_depth1_depth2_depth3_depth4_up1_1_conv1_BatchNorm/FusedBatchNormV3/variance/Fused_Add_" type="Add" version="opset1">
			<input>
				<port id="0">
					<dim>2</dim>
					<dim>64</dim>
					<dim>5</dim>
					<dim>8</dim>
				</port>
				<port id="1">
					<dim>1</dim>
					<dim>64</dim>
					<dim>1</dim>
					<dim>1</dim>
				</port>
			</input>
			<output>
				<port id="2" precision="FP16">
					<dim>2</dim>
					<dim>64</dim>
					<dim>5</dim>
					<dim>8</dim>
				</port>
			</output>
		</layer>
		<layer id="183" name="activation_26/Relu" type="ReLU" version="opset1">
			<input>
				<port id="0">
					<dim>2</dim>
					<dim>64</dim>
					<dim>5</dim>
					<dim>8</dim>
				</port>
			</input>
			<output>
				<port id="1" precision="FP16">
					<dim>2</dim>
					<dim>64</dim>
					<dim>5</dim>
					<dim>8</dim>
				</port>
			</output>
		</layer>
		<layer id="184" name="hourglass_hg_1_depth1_depth2_depth3_depth4_up1_1_conv1/BiasAdd_weights_fused_bn/Output_0/Data__const" type="Const" version="opset1">
			<data element_type="f16" offset="332832" shape="32,64,1,1" size="4096"/>
			<output>
				<port id="1" precision="FP16">
					<dim>32</dim>
					<dim>64</dim>
					<dim>1</dim>
					<dim>1</dim>
				</port>
			</output>
		</layer>
		<layer id="185" name="hourglass_hg_1_depth1_depth2_depth3_depth4_up1_1_conv1/BiasAdd/WithoutBiases" type="Convolution" version="opset1">
			<data dilations="1,1" output_padding="0,0" pads_begin="0,0" pads_end="0,0" strides="1,1"/>
			<input>
				<port id="0">
					<dim>2</dim>
					<dim>64</dim>
					<dim>5</dim>
					<dim>8</dim>
				</port>
				<port id="1">
					<dim>32</dim>
					<dim>64</dim>
					<dim>1</dim>
					<dim>1</dim>
				</port>
			</input>
			<output>
				<port id="2" precision="FP16">
					<dim>2</dim>
					<dim>32</dim>
					<dim>5</dim>
					<dim>8</dim>
				</port>
			</output>
		</layer>
		<layer id="186" name="hourglass_hg_1_depth1_depth2_depth3_depth4_up1_1_conv1/BiasAdd/Dims1001118534/EltwiseUnsqueeze18945_const" type="Const" version="opset1">
			<data element_type="f16" offset="336928" shape="1,32,1,1" size="64"/>
			<output>
				<port id="1" precision="FP16">
					<dim>1</dim>
					<dim>32</dim>
					<dim>1</dim>
					<dim>1</dim>
				</port>
			</output>
		</layer>
		<layer id="187" name="hourglass_hg_1_depth1_depth2_depth3_depth4_up1_1_conv1/BiasAdd" type="Add" version="opset1">
			<input>
				<port id="0">
					<dim>2</dim>
					<dim>32</dim>
					<dim>5</dim>
					<dim>8</dim>
				</port>
				<port id="1">
					<dim>1</dim>
					<dim>32</dim>
					<dim>1</dim>
					<dim>1</dim>
				</port>
			</input>
			<output>
				<port id="2" precision="FP16">
					<dim>2</dim>
					<dim>32</dim>
					<dim>5</dim>
					<dim>8</dim>
				</port>
			</output>
		</layer>
		<layer id="188" name="activation_27/Relu" type="ReLU" version="opset1">
			<input>
				<port id="0">
					<dim>2</dim>
					<dim>32</dim>
					<dim>5</dim>
					<dim>8</dim>
				</port>
			</input>
			<output>
				<port id="1" precision="FP16">
					<dim>2</dim>
					<dim>32</dim>
					<dim>5</dim>
					<dim>8</dim>
				</port>
			</output>
		</layer>
		<layer id="189" name="hourglass_hg_1_depth1_depth2_depth3_depth4_up1_1_conv2/BiasAdd_weights_fused_bn/Output_0/Data__const" type="Const" version="opset1">
			<data element_type="f16" offset="336992" shape="32,32,3,3" size="18432"/>
			<output>
				<port id="1" precision="FP16">
					<dim>32</dim>
					<dim>32</dim>
					<dim>3</dim>
					<dim>3</dim>
				</port>
			</output>
		</layer>
		<layer id="190" name="hourglass_hg_1_depth1_depth2_depth3_depth4_up1_1_conv2/BiasAdd/WithoutBiases" type="Convolution" version="opset1">
			<data dilations="1,1" output_padding="0,0" pads_begin="1,1" pads_end="1,1" strides="1,1"/>
			<input>
				<port id="0">
					<dim>2</dim>
					<dim>32</dim>
					<dim>5</dim>
					<dim>8</dim>
				</port>
				<port id="1">
					<dim>32</dim>
					<dim>32</dim>
					<dim>3</dim>
					<dim>3</dim>
				</port>
			</input>
			<output>
				<port id="2" precision="FP16">
					<dim>2</dim>
					<dim>32</dim>
					<dim>5</dim>
					<dim>8</dim>
				</port>
			</output>
		</layer>
		<layer id="191" name="hourglass_hg_1_depth1_depth2_depth3_depth4_up1_1_conv2/BiasAdd/Dims1012518553/EltwiseUnsqueeze19021_const" type="Const" version="opset1">
			<data element_type="f16" offset="355424" shape="1,32,1,1" size="64"/>
			<output>
				<port id="1" precision="FP16">
					<dim>1</dim>
					<dim>32</dim>
					<dim>1</dim>
					<dim>1</dim>
				</port>
			</output>
		</layer>
		<layer id="192" name="hourglass_hg_1_depth1_depth2_depth3_depth4_up1_1_conv2/BiasAdd" type="Add" version="opset1">
			<input>
				<port id="0">
					<dim>2</dim>
					<dim>32</dim>
					<dim>5</dim>
					<dim>8</dim>
				</port>
				<port id="1">
					<dim>1</dim>
					<dim>32</dim>
					<dim>1</dim>
					<dim>1</dim>
				</port>
			</input>
			<output>
				<port id="2" precision="FP16">
					<dim>2</dim>
					<dim>32</dim>
					<dim>5</dim>
					<dim>8</dim>
				</port>
			</output>
		</layer>
		<layer id="193" name="activation_28/Relu" type="ReLU" version="opset1">
			<input>
				<port id="0">
					<dim>2</dim>
					<dim>32</dim>
					<dim>5</dim>
					<dim>8</dim>
				</port>
			</input>
			<output>
				<port id="1" precision="FP16">
					<dim>2</dim>
					<dim>32</dim>
					<dim>5</dim>
					<dim>8</dim>
				</port>
			</output>
		</layer>
		<layer id="194" name="hourglass_hg_1_depth1_depth2_depth3_depth4_up1_1_conv3/Conv2D/ReadVariableOp:0/Output_0/Data__const" type="Const" version="opset1">
			<data element_type="f16" offset="355488" shape="64,32,1,1" size="4096"/>
			<output>
				<port id="1" precision="FP16">
					<dim>64</dim>
					<dim>32</dim>
					<dim>1</dim>
					<dim>1</dim>
				</port>
			</output>
		</layer>
		<layer id="195" name="hourglass_hg_1_depth1_depth2_depth3_depth4_up1_1_conv3/BiasAdd/WithoutBiases" type="Convolution" version="opset1">
			<data dilations="1,1" output_padding="0,0" pads_begin="0,0" pads_end="0,0" strides="1,1"/>
			<input>
				<port id="0">
					<dim>2</dim>
					<dim>32</dim>
					<dim>5</dim>
					<dim>8</dim>
				</port>
				<port id="1">
					<dim>64</dim>
					<dim>32</dim>
					<dim>1</dim>
					<dim>1</dim>
				</port>
			</input>
			<output>
				<port id="2" precision="FP16">
					<dim>2</dim>
					<dim>64</dim>
					<dim>5</dim>
					<dim>8</dim>
				</port>
			</output>
		</layer>
		<layer id="196" name="hourglass_hg_1_depth1_depth2_depth3_depth4_up1_1_conv3/BiasAdd/Dims1019718565/EltwiseUnsqueeze19069_const" type="Const" version="opset1">
			<data element_type="f16" offset="359584" shape="1,64,1,1" size="128"/>
			<output>
				<port id="1" precision="FP16">
					<dim>1</dim>
					<dim>64</dim>
					<dim>1</dim>
					<dim>1</dim>
				</port>
			</output>
		</layer>
		<layer id="197" name="hourglass_hg_1_depth1_depth2_depth3_depth4_up1_1_conv3/BiasAdd" type="Add" version="opset1">
			<input>
				<port id="0">
					<dim>2</dim>
					<dim>64</dim>
					<dim>5</dim>
					<dim>8</dim>
				</port>
				<port id="1">
					<dim>1</dim>
					<dim>64</dim>
					<dim>1</dim>
					<dim>1</dim>
				</port>
			</input>
			<output>
				<port id="2" precision="FP16">
					<dim>2</dim>
					<dim>64</dim>
					<dim>5</dim>
					<dim>8</dim>
				</port>
			</output>
		</layer>
		<layer id="198" name="add_9/add" type="Add" version="opset1">
			<input>
				<port id="0">
					<dim>2</dim>
					<dim>64</dim>
					<dim>5</dim>
					<dim>8</dim>
				</port>
				<port id="1">
					<dim>2</dim>
					<dim>64</dim>
					<dim>5</dim>
					<dim>8</dim>
				</port>
			</input>
			<output>
				<port id="2" precision="FP16">
					<dim>2</dim>
					<dim>64</dim>
					<dim>5</dim>
					<dim>8</dim>
				</port>
			</output>
		</layer>
		<layer id="199" name="max_pooling2d_4/MaxPool" type="MaxPool" version="opset1">
			<data kernel="2,2" pads_begin="0,0" pads_end="1,0" rounding_type="floor" strides="2,2"/>
			<input>
				<port id="0">
					<dim>2</dim>
					<dim>64</dim>
					<dim>5</dim>
					<dim>8</dim>
				</port>
			</input>
			<output>
				<port id="1" precision="FP16">
					<dim>2</dim>
					<dim>64</dim>
					<dim>3</dim>
					<dim>4</dim>
				</port>
			</output>
		</layer>
		<layer id="200" name="data_mul_179541795818684/EltwiseUnsqueeze19401_const" type="Const" version="opset1">
			<data element_type="f16" offset="359712" shape="1,64,1,1" size="128"/>
			<output>
				<port id="1" precision="FP16">
					<dim>1</dim>
					<dim>64</dim>
					<dim>1</dim>
					<dim>1</dim>
				</port>
			</output>
		</layer>
		<layer id="201" name="hourglass_hg_1_depth1_depth2_depth3_depth4_low1_1_conv1_BatchNorm/FusedBatchNormV3/mean/Fused_Mul_" type="Multiply" version="opset1">
			<input>
				<port id="0">
					<dim>2</dim>
					<dim>64</dim>
					<dim>3</dim>
					<dim>4</dim>
				</port>
				<port id="1">
					<dim>1</dim>
					<dim>64</dim>
					<dim>1</dim>
					<dim>1</dim>
				</port>
			</input>
			<output>
				<port id="2" precision="FP16">
					<dim>2</dim>
					<dim>64</dim>
					<dim>3</dim>
					<dim>4</dim>
				</port>
			</output>
		</layer>
		<layer id="202" name="data_add_179551796018685/EltwiseUnsqueeze19405_const" type="Const" version="opset1">
			<data element_type="f16" offset="359840" shape="1,64,1,1" size="128"/>
			<output>
				<port id="1" precision="FP16">
					<dim>1</dim>
					<dim>64</dim>
					<dim>1</dim>
					<dim>1</dim>
				</port>
			</output>
		</layer>
		<layer id="203" name="hourglass_hg_1_depth1_depth2_depth3_depth4_low1_1_conv1_BatchNorm/FusedBatchNormV3/variance/Fused_Add_" type="Add" version="opset1">
			<input>
				<port id="0">
					<dim>2</dim>
					<dim>64</dim>
					<dim>3</dim>
					<dim>4</dim>
				</port>
				<port id="1">
					<dim>1</dim>
					<dim>64</dim>
					<dim>1</dim>
					<dim>1</dim>
				</port>
			</input>
			<output>
				<port id="2" precision="FP16">
					<dim>2</dim>
					<dim>64</dim>
					<dim>3</dim>
					<dim>4</dim>
				</port>
			</output>
		</layer>
		<layer id="204" name="activation_29/Relu" type="ReLU" version="opset1">
			<input>
				<port id="0">
					<dim>2</dim>
					<dim>64</dim>
					<dim>3</dim>
					<dim>4</dim>
				</port>
			</input>
			<output>
				<port id="1" precision="FP16">
					<dim>2</dim>
					<dim>64</dim>
					<dim>3</dim>
					<dim>4</dim>
				</port>
			</output>
		</layer>
		<layer id="205" name="hourglass_hg_1_depth1_depth2_depth3_depth4_low1_1_conv1/BiasAdd_weights_fused_bn/Output_0/Data__const" type="Const" version="opset1">
			<data element_type="f16" offset="359968" shape="32,64,1,1" size="4096"/>
			<output>
				<port id="1" precision="FP16">
					<dim>32</dim>
					<dim>64</dim>
					<dim>1</dim>
					<dim>1</dim>
				</port>
			</output>
		</layer>
		<layer id="206" name="hourglass_hg_1_depth1_depth2_depth3_depth4_low1_1_conv1/BiasAdd/WithoutBiases" type="Convolution" version="opset1">
			<data dilations="1,1" output_padding="0,0" pads_begin="0,0" pads_end="0,0" strides="1,1"/>
			<input>
				<port id="0">
					<dim>2</dim>
					<dim>64</dim>
					<dim>3</dim>
					<dim>4</dim>
				</port>
				<port id="1">
					<dim>32</dim>
					<dim>64</dim>
					<dim>1</dim>
					<dim>1</dim>
				</port>
			</input>
			<output>
				<port id="2" precision="FP16">
					<dim>2</dim>
					<dim>32</dim>
					<dim>3</dim>
					<dim>4</dim>
				</port>
			</output>
		</layer>
		<layer id="207" name="hourglass_hg_1_depth1_depth2_depth3_depth4_low1_1_conv1/BiasAdd/Dims989718515/EltwiseUnsqueeze18869_const" type="Const" version="opset1">
			<data element_type="f16" offset="364064" shape="1,32,1,1" size="64"/>
			<output>
				<port id="1" precision="FP16">
					<dim>1</dim>
					<dim>32</dim>
					<dim>1</dim>
					<dim>1</dim>
				</port>
			</output>
		</layer>
		<layer id="208" name="hourglass_hg_1_depth1_depth2_depth3_depth4_low1_1_conv1/BiasAdd" type="Add" version="opset1">
			<input>
				<port id="0">
					<dim>2</dim>
					<dim>32</dim>
					<dim>3</dim>
					<dim>4</dim>
				</port>
				<port id="1">
					<dim>1</dim>
					<dim>32</dim>
					<dim>1</dim>
					<dim>1</dim>
				</port>
			</input>
			<output>
				<port id="2" precision="FP16">
					<dim>2</dim>
					<dim>32</dim>
					<dim>3</dim>
					<dim>4</dim>
				</port>
			</output>
		</layer>
		<layer id="209" name="activation_30/Relu" type="ReLU" version="opset1">
			<input>
				<port id="0">
					<dim>2</dim>
					<dim>32</dim>
					<dim>3</dim>
					<dim>4</dim>
				</port>
			</input>
			<output>
				<port id="1" precision="FP16">
					<dim>2</dim>
					<dim>32</dim>
					<dim>3</dim>
					<dim>4</dim>
				</port>
			</output>
		</layer>
		<layer id="210" name="hourglass_hg_1_depth1_depth2_depth3_depth4_low1_1_conv2/BiasAdd_weights_fused_bn/Output_0/Data__const" type="Const" version="opset1">
			<data element_type="f16" offset="364128" shape="32,32,3,3" size="18432"/>
			<output>
				<port id="1" precision="FP16">
					<dim>32</dim>
					<dim>32</dim>
					<dim>3</dim>
					<dim>3</dim>
				</port>
			</output>
		</layer>
		<layer id="211" name="hourglass_hg_1_depth1_depth2_depth3_depth4_low1_1_conv2/BiasAdd/WithoutBiases" type="Convolution" version="opset1">
			<data dilations="1,1" output_padding="0,0" pads_begin="1,1" pads_end="1,1" strides="1,1"/>
			<input>
				<port id="0">
					<dim>2</dim>
					<dim>32</dim>
					<dim>3</dim>
					<dim>4</dim>
				</port>
				<port id="1">
					<dim>32</dim>
					<dim>32</dim>
					<dim>3</dim>
					<dim>3</dim>
				</port>
			</input>
			<output>
				<port id="2" precision="FP16">
					<dim>2</dim>
					<dim>32</dim>
					<dim>3</dim>
					<dim>4</dim>
				</port>
			</output>
		</layer>
		<layer id="212" name="hourglass_hg_1_depth1_depth2_depth3_depth4_low1_1_conv2/BiasAdd/Dims992718520/EltwiseUnsqueeze18889_const" type="Const" version="opset1">
			<data element_type="f16" offset="382560" shape="1,32,1,1" size="64"/>
			<output>
				<port id="1" precision="FP16">
					<dim>1</dim>
					<dim>32</dim>
					<dim>1</dim>
					<dim>1</dim>
				</port>
			</output>
		</layer>
		<layer id="213" name="hourglass_hg_1_depth1_depth2_depth3_depth4_low1_1_conv2/BiasAdd" type="Add" version="opset1">
			<input>
				<port id="0">
					<dim>2</dim>
					<dim>32</dim>
					<dim>3</dim>
					<dim>4</dim>
				</port>
				<port id="1">
					<dim>1</dim>
					<dim>32</dim>
					<dim>1</dim>
					<dim>1</dim>
				</port>
			</input>
			<output>
				<port id="2" precision="FP16">
					<dim>2</dim>
					<dim>32</dim>
					<dim>3</dim>
					<dim>4</dim>
				</port>
			</output>
		</layer>
		<layer id="214" name="activation_31/Relu" type="ReLU" version="opset1">
			<input>
				<port id="0">
					<dim>2</dim>
					<dim>32</dim>
					<dim>3</dim>
					<dim>4</dim>
				</port>
			</input>
			<output>
				<port id="1" precision="FP16">
					<dim>2</dim>
					<dim>32</dim>
					<dim>3</dim>
					<dim>4</dim>
				</port>
			</output>
		</layer>
		<layer id="215" name="hourglass_hg_1_depth1_depth2_depth3_depth4_low1_1_conv3/Conv2D/ReadVariableOp:0/Output_0/Data__const" type="Const" version="opset1">
			<data element_type="f16" offset="382624" shape="64,32,1,1" size="4096"/>
			<output>
				<port id="1" precision="FP16">
					<dim>64</dim>
					<dim>32</dim>
					<dim>1</dim>
					<dim>1</dim>
				</port>
			</output>
		</layer>
		<layer id="216" name="hourglass_hg_1_depth1_depth2_depth3_depth4_low1_1_conv3/BiasAdd/WithoutBiases" type="Convolution" version="opset1">
			<data dilations="1,1" output_padding="0,0" pads_begin="0,0" pads_end="0,0" strides="1,1"/>
			<input>
				<port id="0">
					<dim>2</dim>
					<dim>32</dim>
					<dim>3</dim>
					<dim>4</dim>
				</port>
				<port id="1">
					<dim>64</dim>
					<dim>32</dim>
					<dim>1</dim>
					<dim>1</dim>
				</port>
			</input>
			<output>
				<port id="2" precision="FP16">
					<dim>2</dim>
					<dim>64</dim>
					<dim>3</dim>
					<dim>4</dim>
				</port>
			</output>
		</layer>
		<layer id="217" name="hourglass_hg_1_depth1_depth2_depth3_depth4_low1_1_conv3/BiasAdd/Dims980118499/EltwiseUnsqueeze18805_const" type="Const" version="opset1">
			<data element_type="f16" offset="386720" shape="1,64,1,1" size="128"/>
			<output>
				<port id="1" precision="FP16">
					<dim>1</dim>
					<dim>64</dim>
					<dim>1</dim>
					<dim>1</dim>
				</port>
			</output>
		</layer>
		<layer id="218" name="hourglass_hg_1_depth1_depth2_depth3_depth4_low1_1_conv3/BiasAdd" type="Add" version="opset1">
			<input>
				<port id="0">
					<dim>2</dim>
					<dim>64</dim>
					<dim>3</dim>
					<dim>4</dim>
				</port>
				<port id="1">
					<dim>1</dim>
					<dim>64</dim>
					<dim>1</dim>
					<dim>1</dim>
				</port>
			</input>
			<output>
				<port id="2" precision="FP16">
					<dim>2</dim>
					<dim>64</dim>
					<dim>3</dim>
					<dim>4</dim>
				</port>
			</output>
		</layer>
		<layer id="219" name="add_10/add" type="Add" version="opset1">
			<input>
				<port id="0">
					<dim>2</dim>
					<dim>64</dim>
					<dim>3</dim>
					<dim>4</dim>
				</port>
				<port id="1">
					<dim>2</dim>
					<dim>64</dim>
					<dim>3</dim>
					<dim>4</dim>
				</port>
			</input>
			<output>
				<port id="2" precision="FP16">
					<dim>2</dim>
					<dim>64</dim>
					<dim>3</dim>
					<dim>4</dim>
				</port>
			</output>
		</layer>
		<layer id="220" name="data_mul_179621796618686/EltwiseUnsqueeze19409_const" type="Const" version="opset1">
			<data element_type="f16" offset="386848" shape="1,64,1,1" size="128"/>
			<output>
				<port id="1" precision="FP16">
					<dim>1</dim>
					<dim>64</dim>
					<dim>1</dim>
					<dim>1</dim>
				</port>
			</output>
		</layer>
		<layer id="221" name="hourglass_hg_1_depth1_depth2_depth3_depth4_low2_1_conv1_BatchNorm/FusedBatchNormV3/mean/Fused_Mul_" type="Multiply" version="opset1">
			<input>
				<port id="0">
					<dim>2</dim>
					<dim>64</dim>
					<dim>3</dim>
					<dim>4</dim>
				</port>
				<port id="1">
					<dim>1</dim>
					<dim>64</dim>
					<dim>1</dim>
					<dim>1</dim>
				</port>
			</input>
			<output>
				<port id="2" precision="FP16">
					<dim>2</dim>
					<dim>64</dim>
					<dim>3</dim>
					<dim>4</dim>
				</port>
			</output>
		</layer>
		<layer id="222" name="data_add_179631796818687/EltwiseUnsqueeze19413_const" type="Const" version="opset1">
			<data element_type="f16" offset="386976" shape="1,64,1,1" size="128"/>
			<output>
				<port id="1" precision="FP16">
					<dim>1</dim>
					<dim>64</dim>
					<dim>1</dim>
					<dim>1</dim>
				</port>
			</output>
		</layer>
		<layer id="223" name="hourglass_hg_1_depth1_depth2_depth3_depth4_low2_1_conv1_BatchNorm/FusedBatchNormV3/variance/Fused_Add_" type="Add" version="opset1">
			<input>
				<port id="0">
					<dim>2</dim>
					<dim>64</dim>
					<dim>3</dim>
					<dim>4</dim>
				</port>
				<port id="1">
					<dim>1</dim>
					<dim>64</dim>
					<dim>1</dim>
					<dim>1</dim>
				</port>
			</input>
			<output>
				<port id="2" precision="FP16">
					<dim>2</dim>
					<dim>64</dim>
					<dim>3</dim>
					<dim>4</dim>
				</port>
			</output>
		</layer>
		<layer id="224" name="activation_32/Relu" type="ReLU" version="opset1">
			<input>
				<port id="0">
					<dim>2</dim>
					<dim>64</dim>
					<dim>3</dim>
					<dim>4</dim>
				</port>
			</input>
			<output>
				<port id="1" precision="FP16">
					<dim>2</dim>
					<dim>64</dim>
					<dim>3</dim>
					<dim>4</dim>
				</port>
			</output>
		</layer>
		<layer id="225" name="hourglass_hg_1_depth1_depth2_depth3_depth4_low2_1_conv1/BiasAdd_weights_fused_bn/Output_0/Data__const" type="Const" version="opset1">
			<data element_type="f16" offset="387104" shape="32,64,1,1" size="4096"/>
			<output>
				<port id="1" precision="FP16">
					<dim>32</dim>
					<dim>64</dim>
					<dim>1</dim>
					<dim>1</dim>
				</port>
			</output>
		</layer>
		<layer id="226" name="hourglass_hg_1_depth1_depth2_depth3_depth4_low2_1_conv1/BiasAdd/WithoutBiases" type="Convolution" version="opset1">
			<data dilations="1,1" output_padding="0,0" pads_begin="0,0" pads_end="0,0" strides="1,1"/>
			<input>
				<port id="0">
					<dim>2</dim>
					<dim>64</dim>
					<dim>3</dim>
					<dim>4</dim>
				</port>
				<port id="1">
					<dim>32</dim>
					<dim>64</dim>
					<dim>1</dim>
					<dim>1</dim>
				</port>
			</input>
			<output>
				<port id="2" precision="FP16">
					<dim>2</dim>
					<dim>32</dim>
					<dim>3</dim>
					<dim>4</dim>
				</port>
			</output>
		</layer>
		<layer id="227" name="hourglass_hg_1_depth1_depth2_depth3_depth4_low2_1_conv1/BiasAdd/Dims987318511/EltwiseUnsqueeze18853_const" type="Const" version="opset1">
			<data element_type="f16" offset="391200" shape="1,32,1,1" size="64"/>
			<output>
				<port id="1" precision="FP16">
					<dim>1</dim>
					<dim>32</dim>
					<dim>1</dim>
					<dim>1</dim>
				</port>
			</output>
		</layer>
		<layer id="228" name="hourglass_hg_1_depth1_depth2_depth3_depth4_low2_1_conv1/BiasAdd" type="Add" version="opset1">
			<input>
				<port id="0">
					<dim>2</dim>
					<dim>32</dim>
					<dim>3</dim>
					<dim>4</dim>
				</port>
				<port id="1">
					<dim>1</dim>
					<dim>32</dim>
					<dim>1</dim>
					<dim>1</dim>
				</port>
			</input>
			<output>
				<port id="2" precision="FP16">
					<dim>2</dim>
					<dim>32</dim>
					<dim>3</dim>
					<dim>4</dim>
				</port>
			</output>
		</layer>
		<layer id="229" name="activation_33/Relu" type="ReLU" version="opset1">
			<input>
				<port id="0">
					<dim>2</dim>
					<dim>32</dim>
					<dim>3</dim>
					<dim>4</dim>
				</port>
			</input>
			<output>
				<port id="1" precision="FP16">
					<dim>2</dim>
					<dim>32</dim>
					<dim>3</dim>
					<dim>4</dim>
				</port>
			</output>
		</layer>
		<layer id="230" name="hourglass_hg_1_depth1_depth2_depth3_depth4_low2_1_conv2/BiasAdd_weights_fused_bn/Output_0/Data__const" type="Const" version="opset1">
			<data element_type="f16" offset="391264" shape="32,32,3,3" size="18432"/>
			<output>
				<port id="1" precision="FP16">
					<dim>32</dim>
					<dim>32</dim>
					<dim>3</dim>
					<dim>3</dim>
				</port>
			</output>
		</layer>
		<layer id="231" name="hourglass_hg_1_depth1_depth2_depth3_depth4_low2_1_conv2/BiasAdd/WithoutBiases" type="Convolution" version="opset1">
			<data dilations="1,1" output_padding="0,0" pads_begin="1,1" pads_end="1,1" strides="1,1"/>
			<input>
				<port id="0">
					<dim>2</dim>
					<dim>32</dim>
					<dim>3</dim>
					<dim>4</dim>
				</port>
				<port id="1">
					<dim>32</dim>
					<dim>32</dim>
					<dim>3</dim>
					<dim>3</dim>
				</port>
			</input>
			<output>
				<port id="2" precision="FP16">
					<dim>2</dim>
					<dim>32</dim>
					<dim>3</dim>
					<dim>4</dim>
				</port>
			</output>
		</layer>
		<layer id="232" name="hourglass_hg_1_depth1_depth2_depth3_depth4_low2_1_conv2/BiasAdd/Dims978318496/EltwiseUnsqueeze18793_const" type="Const" version="opset1">
			<data element_type="f16" offset="409696" shape="1,32,1,1" size="64"/>
			<output>
				<port id="1" precision="FP16">
					<dim>1</dim>
					<dim>32</dim>
					<dim>1</dim>
					<dim>1</dim>
				</port>
			</output>
		</layer>
		<layer id="233" name="hourglass_hg_1_depth1_depth2_depth3_depth4_low2_1_conv2/BiasAdd" type="Add" version="opset1">
			<input>
				<port id="0">
					<dim>2</dim>
					<dim>32</dim>
					<dim>3</dim>
					<dim>4</dim>
				</port>
				<port id="1">
					<dim>1</dim>
					<dim>32</dim>
					<dim>1</dim>
					<dim>1</dim>
				</port>
			</input>
			<output>
				<port id="2" precision="FP16">
					<dim>2</dim>
					<dim>32</dim>
					<dim>3</dim>
					<dim>4</dim>
				</port>
			</output>
		</layer>
		<layer id="234" name="activation_34/Relu" type="ReLU" version="opset1">
			<input>
				<port id="0">
					<dim>2</dim>
					<dim>32</dim>
					<dim>3</dim>
					<dim>4</dim>
				</port>
			</input>
			<output>
				<port id="1" precision="FP16">
					<dim>2</dim>
					<dim>32</dim>
					<dim>3</dim>
					<dim>4</dim>
				</port>
			</output>
		</layer>
		<layer id="235" name="hourglass_hg_1_depth1_depth2_depth3_depth4_low2_1_conv3/Conv2D/ReadVariableOp:0/Output_0/Data__const" type="Const" version="opset1">
			<data element_type="f16" offset="409760" shape="64,32,1,1" size="4096"/>
			<output>
				<port id="1" precision="FP16">
					<dim>64</dim>
					<dim>32</dim>
					<dim>1</dim>
					<dim>1</dim>
				</port>
			</output>
		</layer>
		<layer id="236" name="hourglass_hg_1_depth1_depth2_depth3_depth4_low2_1_conv3/BiasAdd/WithoutBiases" type="Convolution" version="opset1">
			<data dilations="1,1" output_padding="0,0" pads_begin="0,0" pads_end="0,0" strides="1,1"/>
			<input>
				<port id="0">
					<dim>2</dim>
					<dim>32</dim>
					<dim>3</dim>
					<dim>4</dim>
				</port>
				<port id="1">
					<dim>64</dim>
					<dim>32</dim>
					<dim>1</dim>
					<dim>1</dim>
				</port>
			</input>
			<output>
				<port id="2" precision="FP16">
					<dim>2</dim>
					<dim>64</dim>
					<dim>3</dim>
					<dim>4</dim>
				</port>
			</output>
		</layer>
		<layer id="237" name="hourglass_hg_1_depth1_depth2_depth3_depth4_low2_1_conv3/BiasAdd/Dims1051518618/EltwiseUnsqueeze19281_const" type="Const" version="opset1">
			<data element_type="f16" offset="413856" shape="1,64,1,1" size="128"/>
			<output>
				<port id="1" precision="FP16">
					<dim>1</dim>
					<dim>64</dim>
					<dim>1</dim>
					<dim>1</dim>
				</port>
			</output>
		</layer>
		<layer id="238" name="hourglass_hg_1_depth1_depth2_depth3_depth4_low2_1_conv3/BiasAdd" type="Add" version="opset1">
			<input>
				<port id="0">
					<dim>2</dim>
					<dim>64</dim>
					<dim>3</dim>
					<dim>4</dim>
				</port>
				<port id="1">
					<dim>1</dim>
					<dim>64</dim>
					<dim>1</dim>
					<dim>1</dim>
				</port>
			</input>
			<output>
				<port id="2" precision="FP16">
					<dim>2</dim>
					<dim>64</dim>
					<dim>3</dim>
					<dim>4</dim>
				</port>
			</output>
		</layer>
		<layer id="239" name="add_11/add" type="Add" version="opset1">
			<input>
				<port id="0">
					<dim>2</dim>
					<dim>64</dim>
					<dim>3</dim>
					<dim>4</dim>
				</port>
				<port id="1">
					<dim>2</dim>
					<dim>64</dim>
					<dim>3</dim>
					<dim>4</dim>
				</port>
			</input>
			<output>
				<port id="2" precision="FP16">
					<dim>2</dim>
					<dim>64</dim>
					<dim>3</dim>
					<dim>4</dim>
				</port>
			</output>
		</layer>
		<layer id="240" name="data_mul_179701797418688/EltwiseUnsqueeze19417_const" type="Const" version="opset1">
			<data element_type="f16" offset="413984" shape="1,64,1,1" size="128"/>
			<output>
				<port id="1" precision="FP16">
					<dim>1</dim>
					<dim>64</dim>
					<dim>1</dim>
					<dim>1</dim>
				</port>
			</output>
		</layer>
		<layer id="241" name="hourglass_hg_1_depth1_depth2_depth3_depth4_low3_1_conv1_BatchNorm/FusedBatchNormV3/mean/Fused_Mul_" type="Multiply" version="opset1">
			<input>
				<port id="0">
					<dim>2</dim>
					<dim>64</dim>
					<dim>3</dim>
					<dim>4</dim>
				</port>
				<port id="1">
					<dim>1</dim>
					<dim>64</dim>
					<dim>1</dim>
					<dim>1</dim>
				</port>
			</input>
			<output>
				<port id="2" precision="FP16">
					<dim>2</dim>
					<dim>64</dim>
					<dim>3</dim>
					<dim>4</dim>
				</port>
			</output>
		</layer>
		<layer id="242" name="data_add_179711797618689/EltwiseUnsqueeze19421_const" type="Const" version="opset1">
			<data element_type="f16" offset="414112" shape="1,64,1,1" size="128"/>
			<output>
				<port id="1" precision="FP16">
					<dim>1</dim>
					<dim>64</dim>
					<dim>1</dim>
					<dim>1</dim>
				</port>
			</output>
		</layer>
		<layer id="243" name="hourglass_hg_1_depth1_depth2_depth3_depth4_low3_1_conv1_BatchNorm/FusedBatchNormV3/variance/Fused_Add_" type="Add" version="opset1">
			<input>
				<port id="0">
					<dim>2</dim>
					<dim>64</dim>
					<dim>3</dim>
					<dim>4</dim>
				</port>
				<port id="1">
					<dim>1</dim>
					<dim>64</dim>
					<dim>1</dim>
					<dim>1</dim>
				</port>
			</input>
			<output>
				<port id="2" precision="FP16">
					<dim>2</dim>
					<dim>64</dim>
					<dim>3</dim>
					<dim>4</dim>
				</port>
			</output>
		</layer>
		<layer id="244" name="activation_35/Relu" type="ReLU" version="opset1">
			<input>
				<port id="0">
					<dim>2</dim>
					<dim>64</dim>
					<dim>3</dim>
					<dim>4</dim>
				</port>
			</input>
			<output>
				<port id="1" precision="FP16">
					<dim>2</dim>
					<dim>64</dim>
					<dim>3</dim>
					<dim>4</dim>
				</port>
			</output>
		</layer>
		<layer id="245" name="hourglass_hg_1_depth1_depth2_depth3_depth4_low3_1_conv1/BiasAdd_weights_fused_bn/Output_0/Data__const" type="Const" version="opset1">
			<data element_type="f16" offset="414240" shape="32,64,1,1" size="4096"/>
			<output>
				<port id="1" precision="FP16">
					<dim>32</dim>
					<dim>64</dim>
					<dim>1</dim>
					<dim>1</dim>
				</port>
			</output>
		</layer>
		<layer id="246" name="hourglass_hg_1_depth1_depth2_depth3_depth4_low3_1_conv1/BiasAdd/WithoutBiases" type="Convolution" version="opset1">
			<data dilations="1,1" output_padding="0,0" pads_begin="0,0" pads_end="0,0" strides="1,1"/>
			<input>
				<port id="0">
					<dim>2</dim>
					<dim>64</dim>
					<dim>3</dim>
					<dim>4</dim>
				</port>
				<port id="1">
					<dim>32</dim>
					<dim>64</dim>
					<dim>1</dim>
					<dim>1</dim>
				</port>
			</input>
			<output>
				<port id="2" precision="FP16">
					<dim>2</dim>
					<dim>32</dim>
					<dim>3</dim>
					<dim>4</dim>
				</port>
			</output>
		</layer>
		<layer id="247" name="hourglass_hg_1_depth1_depth2_depth3_depth4_low3_1_conv1/BiasAdd/Dims994518523/EltwiseUnsqueeze18901_const" type="Const" version="opset1">
			<data element_type="f16" offset="418336" shape="1,32,1,1" size="64"/>
			<output>
				<port id="1" precision="FP16">
					<dim>1</dim>
					<dim>32</dim>
					<dim>1</dim>
					<dim>1</dim>
				</port>
			</output>
		</layer>
		<layer id="248" name="hourglass_hg_1_depth1_depth2_depth3_depth4_low3_1_conv1/BiasAdd" type="Add" version="opset1">
			<input>
				<port id="0">
					<dim>2</dim>
					<dim>32</dim>
					<dim>3</dim>
					<dim>4</dim>
				</port>
				<port id="1">
					<dim>1</dim>
					<dim>32</dim>
					<dim>1</dim>
					<dim>1</dim>
				</port>
			</input>
			<output>
				<port id="2" precision="FP16">
					<dim>2</dim>
					<dim>32</dim>
					<dim>3</dim>
					<dim>4</dim>
				</port>
			</output>
		</layer>
		<layer id="249" name="activation_36/Relu" type="ReLU" version="opset1">
			<input>
				<port id="0">
					<dim>2</dim>
					<dim>32</dim>
					<dim>3</dim>
					<dim>4</dim>
				</port>
			</input>
			<output>
				<port id="1" precision="FP16">
					<dim>2</dim>
					<dim>32</dim>
					<dim>3</dim>
					<dim>4</dim>
				</port>
			</output>
		</layer>
		<layer id="250" name="hourglass_hg_1_depth1_depth2_depth3_depth4_low3_1_conv2/BiasAdd_weights_fused_bn/Output_0/Data__const" type="Const" version="opset1">
			<data element_type="f16" offset="418400" shape="32,32,3,3" size="18432"/>
			<output>
				<port id="1" precision="FP16">
					<dim>32</dim>
					<dim>32</dim>
					<dim>3</dim>
					<dim>3</dim>
				</port>
			</output>
		</layer>
		<layer id="251" name="hourglass_hg_1_depth1_depth2_depth3_depth4_low3_1_conv2/BiasAdd/WithoutBiases" type="Convolution" version="opset1">
			<data dilations="1,1" output_padding="0,0" pads_begin="1,1" pads_end="1,1" strides="1,1"/>
			<input>
				<port id="0">
					<dim>2</dim>
					<dim>32</dim>
					<dim>3</dim>
					<dim>4</dim>
				</port>
				<port id="1">
					<dim>32</dim>
					<dim>32</dim>
					<dim>3</dim>
					<dim>3</dim>
				</port>
			</input>
			<output>
				<port id="2" precision="FP16">
					<dim>2</dim>
					<dim>32</dim>
					<dim>3</dim>
					<dim>4</dim>
				</port>
			</output>
		</layer>
		<layer id="252" name="hourglass_hg_1_depth1_depth2_depth3_depth4_low3_1_conv2/BiasAdd/Dims1028118579/EltwiseUnsqueeze19125_const" type="Const" version="opset1">
			<data element_type="f16" offset="436832" shape="1,32,1,1" size="64"/>
			<output>
				<port id="1" precision="FP16">
					<dim>1</dim>
					<dim>32</dim>
					<dim>1</dim>
					<dim>1</dim>
				</port>
			</output>
		</layer>
		<layer id="253" name="hourglass_hg_1_depth1_depth2_depth3_depth4_low3_1_conv2/BiasAdd" type="Add" version="opset1">
			<input>
				<port id="0">
					<dim>2</dim>
					<dim>32</dim>
					<dim>3</dim>
					<dim>4</dim>
				</port>
				<port id="1">
					<dim>1</dim>
					<dim>32</dim>
					<dim>1</dim>
					<dim>1</dim>
				</port>
			</input>
			<output>
				<port id="2" precision="FP16">
					<dim>2</dim>
					<dim>32</dim>
					<dim>3</dim>
					<dim>4</dim>
				</port>
			</output>
		</layer>
		<layer id="254" name="activation_37/Relu" type="ReLU" version="opset1">
			<input>
				<port id="0">
					<dim>2</dim>
					<dim>32</dim>
					<dim>3</dim>
					<dim>4</dim>
				</port>
			</input>
			<output>
				<port id="1" precision="FP16">
					<dim>2</dim>
					<dim>32</dim>
					<dim>3</dim>
					<dim>4</dim>
				</port>
			</output>
		</layer>
		<layer id="255" name="hourglass_hg_1_depth1_depth2_depth3_depth4_low3_1_conv3/Conv2D/ReadVariableOp:0/Output_0/Data__const" type="Const" version="opset1">
			<data element_type="f16" offset="436896" shape="64,32,1,1" size="4096"/>
			<output>
				<port id="1" precision="FP16">
					<dim>64</dim>
					<dim>32</dim>
					<dim>1</dim>
					<dim>1</dim>
				</port>
			</output>
		</layer>
		<layer id="256" name="hourglass_hg_1_depth1_depth2_depth3_depth4_low3_1_conv3/BiasAdd/WithoutBiases" type="Convolution" version="opset1">
			<data dilations="1,1" output_padding="0,0" pads_begin="0,0" pads_end="0,0" strides="1,1"/>
			<input>
				<port id="0">
					<dim>2</dim>
					<dim>32</dim>
					<dim>3</dim>
					<dim>4</dim>
				</port>
				<port id="1">
					<dim>64</dim>
					<dim>32</dim>
					<dim>1</dim>
					<dim>1</dim>
				</port>
			</input>
			<output>
				<port id="2" precision="FP16">
					<dim>2</dim>
					<dim>64</dim>
					<dim>3</dim>
					<dim>4</dim>
				</port>
			</output>
		</layer>
		<layer id="257" name="hourglass_hg_1_depth1_depth2_depth3_depth4_low3_1_conv3/BiasAdd/Dims1015518558/EltwiseUnsqueeze19041_const" type="Const" version="opset1">
			<data element_type="f16" offset="440992" shape="1,64,1,1" size="128"/>
			<output>
				<port id="1" precision="FP16">
					<dim>1</dim>
					<dim>64</dim>
					<dim>1</dim>
					<dim>1</dim>
				</port>
			</output>
		</layer>
		<layer id="258" name="hourglass_hg_1_depth1_depth2_depth3_depth4_low3_1_conv3/BiasAdd" type="Add" version="opset1">
			<input>
				<port id="0">
					<dim>2</dim>
					<dim>64</dim>
					<dim>3</dim>
					<dim>4</dim>
				</port>
				<port id="1">
					<dim>1</dim>
					<dim>64</dim>
					<dim>1</dim>
					<dim>1</dim>
				</port>
			</input>
			<output>
				<port id="2" precision="FP16">
					<dim>2</dim>
					<dim>64</dim>
					<dim>3</dim>
					<dim>4</dim>
				</port>
			</output>
		</layer>
		<layer id="259" name="add_12/add" type="Add" version="opset1">
			<input>
				<port id="0">
					<dim>2</dim>
					<dim>64</dim>
					<dim>3</dim>
					<dim>4</dim>
				</port>
				<port id="1">
					<dim>2</dim>
					<dim>64</dim>
					<dim>3</dim>
					<dim>4</dim>
				</port>
			</input>
			<output>
				<port id="2" precision="FP16">
					<dim>2</dim>
					<dim>64</dim>
					<dim>3</dim>
					<dim>4</dim>
				</port>
			</output>
		</layer>
		<layer id="260" name="Shape__236" type="ShapeOf" version="opset3">
			<data output_type="i64"/>
			<input>
				<port id="0">
					<dim>2</dim>
					<dim>64</dim>
					<dim>3</dim>
					<dim>4</dim>
				</port>
			</input>
			<output>
				<port id="1" precision="I64">
					<dim>4</dim>
				</port>
			</output>
		</layer>
		<layer id="261" name="Slice__238/Cast_140501_const" type="Const" version="opset1">
			<data element_type="i64" offset="441120" shape="1" size="8"/>
			<output>
				<port id="1" precision="I64">
					<dim>1</dim>
				</port>
			</output>
		</layer>
		<layer id="262" name="Slice__238/Cast_240503_const" type="Const" version="opset1">
			<data element_type="i64" offset="441128" shape="1" size="8"/>
			<output>
				<port id="1" precision="I64">
					<dim>1</dim>
				</port>
			</output>
		</layer>
		<layer id="263" name="Slice__238/Cast_340505_const" type="Const" version="opset1">
			<data element_type="i64" offset="441136" shape="1" size="8"/>
			<output>
				<port id="1" precision="I64">
					<dim>1</dim>
				</port>
			</output>
		</layer>
		<layer id="264" name="Slice__238" type="StridedSlice" version="opset1">
			<data begin_mask="1" ellipsis_mask="0" end_mask="0" new_axis_mask="0" shrink_axis_mask="0"/>
			<input>
				<port id="0">
					<dim>4</dim>
				</port>
				<port id="1">
					<dim>1</dim>
				</port>
				<port id="2">
					<dim>1</dim>
				</port>
				<port id="3">
					<dim>1</dim>
				</port>
			</input>
			<output>
				<port id="4" precision="I64">
					<dim>2</dim>
				</port>
			</output>
		</layer>
		<layer id="265" name="Copy_const_fold_opt__1575/Output_0/Data__const" type="Const" version="opset1">
			<data element_type="i64" offset="441144" shape="2" size="16"/>
			<output>
				<port id="1" precision="I64">
					<dim>2</dim>
				</port>
			</output>
		</layer>
		<layer id="266" name="Concat__240" type="Concat" version="opset1">
			<data axis="0"/>
			<input>
				<port id="0">
					<dim>2</dim>
				</port>
				<port id="1">
					<dim>2</dim>
				</port>
			</input>
			<output>
				<port id="2" precision="I64">
					<dim>4</dim>
				</port>
			</output>
		</layer>
		<layer id="267" name="Resize__241/StridedSlice_sizes/Cast_140597_const" type="Const" version="opset1">
			<data element_type="i64" offset="441128" shape="1" size="8"/>
			<output>
				<port id="1" precision="I64">
					<dim>1</dim>
				</port>
			</output>
		</layer>
		<layer id="268" name="Resize__241/StridedSlice_sizes/Cast_240599_const" type="Const" version="opset1">
			<data element_type="i64" offset="441160" shape="1" size="8"/>
			<output>
				<port id="1" precision="I64">
					<dim>1</dim>
				</port>
			</output>
		</layer>
		<layer id="269" name="Resize__241/StridedSlice_sizes/Cast_340601_const" type="Const" version="opset1">
			<data element_type="i64" offset="441136" shape="1" size="8"/>
			<output>
				<port id="1" precision="I64">
					<dim>1</dim>
				</port>
			</output>
		</layer>
		<layer id="270" name="Resize__241/StridedSlice_sizes" type="StridedSlice" version="opset1">
			<data begin_mask="0" ellipsis_mask="0" end_mask="0" new_axis_mask="0" shrink_axis_mask="0"/>
			<input>
				<port id="0">
					<dim>4</dim>
				</port>
				<port id="1">
					<dim>1</dim>
				</port>
				<port id="2">
					<dim>1</dim>
				</port>
				<port id="3">
					<dim>1</dim>
				</port>
			</input>
			<output>
				<port id="4" precision="I64">
					<dim>2</dim>
				</port>
			</output>
		</layer>
		<layer id="271" name="7574" type="Convert" version="opset1">
			<data destination_type="f16"/>
			<input>
				<port id="0">
					<dim>4</dim>
				</port>
			</input>
			<output>
				<port id="1" precision="FP16">
					<dim>4</dim>
				</port>
			</output>
		</layer>
		<layer id="272" name="Resize__241/ShapeOf_" type="ShapeOf" version="opset3">
			<data output_type="i64"/>
			<input>
				<port id="0">
					<dim>2</dim>
					<dim>64</dim>
					<dim>3</dim>
					<dim>4</dim>
				</port>
			</input>
			<output>
				<port id="1" precision="I64">
					<dim>4</dim>
				</port>
			</output>
		</layer>
		<layer id="273" name="7573" type="Convert" version="opset1">
			<data destination_type="f16"/>
			<input>
				<port id="0">
					<dim>4</dim>
				</port>
			</input>
			<output>
				<port id="1" precision="FP16">
					<dim>4</dim>
				</port>
			</output>
		</layer>
		<layer id="274" name="Resize__241/Div_" type="Divide" version="opset1">
			<input>
				<port id="0">
					<dim>4</dim>
				</port>
				<port id="1">
					<dim>4</dim>
				</port>
			</input>
			<output>
				<port id="2" precision="FP16">
					<dim>4</dim>
				</port>
			</output>
		</layer>
		<layer id="275" name="Resize__241/Add__input_port_1/value7572_const" type="Const" version="opset1">
			<data element_type="f16" offset="441168" shape="1" size="2"/>
			<output>
				<port id="1" precision="FP16">
					<dim>1</dim>
				</port>
			</output>
		</layer>
		<layer id="276" name="Resize__241/Add_" type="Add" version="opset1">
			<input>
				<port id="0">
					<dim>4</dim>
				</port>
				<port id="1">
					<dim>1</dim>
				</port>
			</input>
			<output>
				<port id="2" precision="FP16">
					<dim>4</dim>
				</port>
			</output>
		</layer>
		<layer id="277" name="Resize__241/StridedSlice_scales/Cast_140695_const" type="Const" version="opset1">
			<data element_type="i64" offset="441128" shape="1" size="8"/>
			<output>
				<port id="1" precision="I64">
					<dim>1</dim>
				</port>
			</output>
		</layer>
		<layer id="278" name="Resize__241/StridedSlice_scales/Cast_240697_const" type="Const" version="opset1">
			<data element_type="i64" offset="441160" shape="1" size="8"/>
			<output>
				<port id="1" precision="I64">
					<dim>1</dim>
				</port>
			</output>
		</layer>
		<layer id="279" name="Resize__241/StridedSlice_scales/Cast_340699_const" type="Const" version="opset1">
			<data element_type="i64" offset="441136" shape="1" size="8"/>
			<output>
				<port id="1" precision="I64">
					<dim>1</dim>
				</port>
			</output>
		</layer>
		<layer id="280" name="Resize__241/StridedSlice_scales" type="StridedSlice" version="opset1">
			<data begin_mask="0" ellipsis_mask="0" end_mask="0" new_axis_mask="0" shrink_axis_mask="0"/>
			<input>
				<port id="0">
					<dim>4</dim>
				</port>
				<port id="1">
					<dim>1</dim>
				</port>
				<port id="2">
					<dim>1</dim>
				</port>
				<port id="3">
					<dim>1</dim>
				</port>
			</input>
			<output>
				<port id="4" precision="FP16">
					<dim>2</dim>
				</port>
			</output>
		</layer>
		<layer id="281" name="Resize__241/axis_7568_const" type="Const" version="opset1">
			<data element_type="i64" offset="441170" shape="2" size="16"/>
			<output>
				<port id="1" precision="I64">
					<dim>2</dim>
				</port>
			</output>
		</layer>
		<layer id="282" name="Resize__241" type="Interpolate" version="opset4">
			<data antialias="0" coordinate_transformation_mode="align_corners" cube_coeff="-0.75" mode="linear_onnx" nearest_mode="floor" pads_begin="0,0,0,0" pads_end="0,0,0,0" shape_calculation_mode="sizes"/>
			<input>
				<port id="0">
					<dim>2</dim>
					<dim>64</dim>
					<dim>3</dim>
					<dim>4</dim>
				</port>
				<port id="1">
					<dim>2</dim>
				</port>
				<port id="2">
					<dim>2</dim>
				</port>
				<port id="3">
					<dim>2</dim>
				</port>
			</input>
			<output>
				<port id="4" precision="FP16">
					<dim>2</dim>
					<dim>64</dim>
					<dim>5</dim>
					<dim>8</dim>
				</port>
			</output>
		</layer>
		<layer id="283" name="add_13/add" type="Add" version="opset1">
			<input>
				<port id="0">
					<dim>2</dim>
					<dim>64</dim>
					<dim>5</dim>
					<dim>8</dim>
				</port>
				<port id="1">
					<dim>2</dim>
					<dim>64</dim>
					<dim>5</dim>
					<dim>8</dim>
				</port>
			</input>
			<output>
				<port id="2" precision="FP16">
					<dim>2</dim>
					<dim>64</dim>
					<dim>5</dim>
					<dim>8</dim>
				</port>
			</output>
		</layer>
		<layer id="284" name="data_mul_179781798218690/EltwiseUnsqueeze19425_const" type="Const" version="opset1">
			<data element_type="f16" offset="441186" shape="1,64,1,1" size="128"/>
			<output>
				<port id="1" precision="FP16">
					<dim>1</dim>
					<dim>64</dim>
					<dim>1</dim>
					<dim>1</dim>
				</port>
			</output>
		</layer>
		<layer id="285" name="hourglass_hg_1_depth1_depth2_depth3_low3_1_conv1_BatchNorm/FusedBatchNormV3/mean/Fused_Mul_" type="Multiply" version="opset1">
			<input>
				<port id="0">
					<dim>2</dim>
					<dim>64</dim>
					<dim>5</dim>
					<dim>8</dim>
				</port>
				<port id="1">
					<dim>1</dim>
					<dim>64</dim>
					<dim>1</dim>
					<dim>1</dim>
				</port>
			</input>
			<output>
				<port id="2" precision="FP16">
					<dim>2</dim>
					<dim>64</dim>
					<dim>5</dim>
					<dim>8</dim>
				</port>
			</output>
		</layer>
		<layer id="286" name="data_add_179791798418691/EltwiseUnsqueeze19429_const" type="Const" version="opset1">
			<data element_type="f16" offset="441314" shape="1,64,1,1" size="128"/>
			<output>
				<port id="1" precision="FP16">
					<dim>1</dim>
					<dim>64</dim>
					<dim>1</dim>
					<dim>1</dim>
				</port>
			</output>
		</layer>
		<layer id="287" name="hourglass_hg_1_depth1_depth2_depth3_low3_1_conv1_BatchNorm/FusedBatchNormV3/variance/Fused_Add_" type="Add" version="opset1">
			<input>
				<port id="0">
					<dim>2</dim>
					<dim>64</dim>
					<dim>5</dim>
					<dim>8</dim>
				</port>
				<port id="1">
					<dim>1</dim>
					<dim>64</dim>
					<dim>1</dim>
					<dim>1</dim>
				</port>
			</input>
			<output>
				<port id="2" precision="FP16">
					<dim>2</dim>
					<dim>64</dim>
					<dim>5</dim>
					<dim>8</dim>
				</port>
			</output>
		</layer>
		<layer id="288" name="activation_38/Relu" type="ReLU" version="opset1">
			<input>
				<port id="0">
					<dim>2</dim>
					<dim>64</dim>
					<dim>5</dim>
					<dim>8</dim>
				</port>
			</input>
			<output>
				<port id="1" precision="FP16">
					<dim>2</dim>
					<dim>64</dim>
					<dim>5</dim>
					<dim>8</dim>
				</port>
			</output>
		</layer>
		<layer id="289" name="hourglass_hg_1_depth1_depth2_depth3_low3_1_conv1/BiasAdd_weights_fused_bn/Output_0/Data__const" type="Const" version="opset1">
			<data element_type="f16" offset="441442" shape="32,64,1,1" size="4096"/>
			<output>
				<port id="1" precision="FP16">
					<dim>32</dim>
					<dim>64</dim>
					<dim>1</dim>
					<dim>1</dim>
				</port>
			</output>
		</layer>
		<layer id="290" name="hourglass_hg_1_depth1_depth2_depth3_low3_1_conv1/BiasAdd/WithoutBiases" type="Convolution" version="opset1">
			<data dilations="1,1" output_padding="0,0" pads_begin="0,0" pads_end="0,0" strides="1,1"/>
			<input>
				<port id="0">
					<dim>2</dim>
					<dim>64</dim>
					<dim>5</dim>
					<dim>8</dim>
				</port>
				<port id="1">
					<dim>32</dim>
					<dim>64</dim>
					<dim>1</dim>
					<dim>1</dim>
				</port>
			</input>
			<output>
				<port id="2" precision="FP16">
					<dim>2</dim>
					<dim>32</dim>
					<dim>5</dim>
					<dim>8</dim>
				</port>
			</output>
		</layer>
		<layer id="291" name="hourglass_hg_1_depth1_depth2_depth3_low3_1_conv1/BiasAdd/Dims1011918552/EltwiseUnsqueeze19017_const" type="Const" version="opset1">
			<data element_type="f16" offset="445538" shape="1,32,1,1" size="64"/>
			<output>
				<port id="1" precision="FP16">
					<dim>1</dim>
					<dim>32</dim>
					<dim>1</dim>
					<dim>1</dim>
				</port>
			</output>
		</layer>
		<layer id="292" name="hourglass_hg_1_depth1_depth2_depth3_low3_1_conv1/BiasAdd" type="Add" version="opset1">
			<input>
				<port id="0">
					<dim>2</dim>
					<dim>32</dim>
					<dim>5</dim>
					<dim>8</dim>
				</port>
				<port id="1">
					<dim>1</dim>
					<dim>32</dim>
					<dim>1</dim>
					<dim>1</dim>
				</port>
			</input>
			<output>
				<port id="2" precision="FP16">
					<dim>2</dim>
					<dim>32</dim>
					<dim>5</dim>
					<dim>8</dim>
				</port>
			</output>
		</layer>
		<layer id="293" name="activation_39/Relu" type="ReLU" version="opset1">
			<input>
				<port id="0">
					<dim>2</dim>
					<dim>32</dim>
					<dim>5</dim>
					<dim>8</dim>
				</port>
			</input>
			<output>
				<port id="1" precision="FP16">
					<dim>2</dim>
					<dim>32</dim>
					<dim>5</dim>
					<dim>8</dim>
				</port>
			</output>
		</layer>
		<layer id="294" name="hourglass_hg_1_depth1_depth2_depth3_low3_1_conv2/BiasAdd_weights_fused_bn/Output_0/Data__const" type="Const" version="opset1">
			<data element_type="f16" offset="445602" shape="32,32,3,3" size="18432"/>
			<output>
				<port id="1" precision="FP16">
					<dim>32</dim>
					<dim>32</dim>
					<dim>3</dim>
					<dim>3</dim>
				</port>
			</output>
		</layer>
		<layer id="295" name="hourglass_hg_1_depth1_depth2_depth3_low3_1_conv2/BiasAdd/WithoutBiases" type="Convolution" version="opset1">
			<data dilations="1,1" output_padding="0,0" pads_begin="1,1" pads_end="1,1" strides="1,1"/>
			<input>
				<port id="0">
					<dim>2</dim>
					<dim>32</dim>
					<dim>5</dim>
					<dim>8</dim>
				</port>
				<port id="1">
					<dim>32</dim>
					<dim>32</dim>
					<dim>3</dim>
					<dim>3</dim>
				</port>
			</input>
			<output>
				<port id="2" precision="FP16">
					<dim>2</dim>
					<dim>32</dim>
					<dim>5</dim>
					<dim>8</dim>
				</port>
			</output>
		</layer>
		<layer id="296" name="hourglass_hg_1_depth1_depth2_depth3_low3_1_conv2/BiasAdd/Dims991518518/EltwiseUnsqueeze18881_const" type="Const" version="opset1">
			<data element_type="f16" offset="464034" shape="1,32,1,1" size="64"/>
			<output>
				<port id="1" precision="FP16">
					<dim>1</dim>
					<dim>32</dim>
					<dim>1</dim>
					<dim>1</dim>
				</port>
			</output>
		</layer>
		<layer id="297" name="hourglass_hg_1_depth1_depth2_depth3_low3_1_conv2/BiasAdd" type="Add" version="opset1">
			<input>
				<port id="0">
					<dim>2</dim>
					<dim>32</dim>
					<dim>5</dim>
					<dim>8</dim>
				</port>
				<port id="1">
					<dim>1</dim>
					<dim>32</dim>
					<dim>1</dim>
					<dim>1</dim>
				</port>
			</input>
			<output>
				<port id="2" precision="FP16">
					<dim>2</dim>
					<dim>32</dim>
					<dim>5</dim>
					<dim>8</dim>
				</port>
			</output>
		</layer>
		<layer id="298" name="activation_40/Relu" type="ReLU" version="opset1">
			<input>
				<port id="0">
					<dim>2</dim>
					<dim>32</dim>
					<dim>5</dim>
					<dim>8</dim>
				</port>
			</input>
			<output>
				<port id="1" precision="FP16">
					<dim>2</dim>
					<dim>32</dim>
					<dim>5</dim>
					<dim>8</dim>
				</port>
			</output>
		</layer>
		<layer id="299" name="hourglass_hg_1_depth1_depth2_depth3_low3_1_conv3/Conv2D/ReadVariableOp:0/Output_0/Data__const" type="Const" version="opset1">
			<data element_type="f16" offset="464098" shape="64,32,1,1" size="4096"/>
			<output>
				<port id="1" precision="FP16">
					<dim>64</dim>
					<dim>32</dim>
					<dim>1</dim>
					<dim>1</dim>
				</port>
			</output>
		</layer>
		<layer id="300" name="hourglass_hg_1_depth1_depth2_depth3_low3_1_conv3/BiasAdd/WithoutBiases" type="Convolution" version="opset1">
			<data dilations="1,1" output_padding="0,0" pads_begin="0,0" pads_end="0,0" strides="1,1"/>
			<input>
				<port id="0">
					<dim>2</dim>
					<dim>32</dim>
					<dim>5</dim>
					<dim>8</dim>
				</port>
				<port id="1">
					<dim>64</dim>
					<dim>32</dim>
					<dim>1</dim>
					<dim>1</dim>
				</port>
			</input>
			<output>
				<port id="2" precision="FP16">
					<dim>2</dim>
					<dim>64</dim>
					<dim>5</dim>
					<dim>8</dim>
				</port>
			</output>
		</layer>
		<layer id="301" name="hourglass_hg_1_depth1_depth2_depth3_low3_1_conv3/BiasAdd/Dims1025118574/EltwiseUnsqueeze19105_const" type="Const" version="opset1">
			<data element_type="f16" offset="468194" shape="1,64,1,1" size="128"/>
			<output>
				<port id="1" precision="FP16">
					<dim>1</dim>
					<dim>64</dim>
					<dim>1</dim>
					<dim>1</dim>
				</port>
			</output>
		</layer>
		<layer id="302" name="hourglass_hg_1_depth1_depth2_depth3_low3_1_conv3/BiasAdd" type="Add" version="opset1">
			<input>
				<port id="0">
					<dim>2</dim>
					<dim>64</dim>
					<dim>5</dim>
					<dim>8</dim>
				</port>
				<port id="1">
					<dim>1</dim>
					<dim>64</dim>
					<dim>1</dim>
					<dim>1</dim>
				</port>
			</input>
			<output>
				<port id="2" precision="FP16">
					<dim>2</dim>
					<dim>64</dim>
					<dim>5</dim>
					<dim>8</dim>
				</port>
			</output>
		</layer>
		<layer id="303" name="add_14/add" type="Add" version="opset1">
			<input>
				<port id="0">
					<dim>2</dim>
					<dim>64</dim>
					<dim>5</dim>
					<dim>8</dim>
				</port>
				<port id="1">
					<dim>2</dim>
					<dim>64</dim>
					<dim>5</dim>
					<dim>8</dim>
				</port>
			</input>
			<output>
				<port id="2" precision="FP16">
					<dim>2</dim>
					<dim>64</dim>
					<dim>5</dim>
					<dim>8</dim>
				</port>
			</output>
		</layer>
		<layer id="304" name="Shape__297" type="ShapeOf" version="opset3">
			<data output_type="i64"/>
			<input>
				<port id="0">
					<dim>2</dim>
					<dim>64</dim>
					<dim>5</dim>
					<dim>8</dim>
				</port>
			</input>
			<output>
				<port id="1" precision="I64">
					<dim>4</dim>
				</port>
			</output>
		</layer>
		<layer id="305" name="Slice__299/Cast_140675_const" type="Const" version="opset1">
			<data element_type="i64" offset="441120" shape="1" size="8"/>
			<output>
				<port id="1" precision="I64">
					<dim>1</dim>
				</port>
			</output>
		</layer>
		<layer id="306" name="Slice__299/Cast_240677_const" type="Const" version="opset1">
			<data element_type="i64" offset="441128" shape="1" size="8"/>
			<output>
				<port id="1" precision="I64">
					<dim>1</dim>
				</port>
			</output>
		</layer>
		<layer id="307" name="Slice__299/Cast_340679_const" type="Const" version="opset1">
			<data element_type="i64" offset="441136" shape="1" size="8"/>
			<output>
				<port id="1" precision="I64">
					<dim>1</dim>
				</port>
			</output>
		</layer>
		<layer id="308" name="Slice__299" type="StridedSlice" version="opset1">
			<data begin_mask="1" ellipsis_mask="0" end_mask="0" new_axis_mask="0" shrink_axis_mask="0"/>
			<input>
				<port id="0">
					<dim>4</dim>
				</port>
				<port id="1">
					<dim>1</dim>
				</port>
				<port id="2">
					<dim>1</dim>
				</port>
				<port id="3">
					<dim>1</dim>
				</port>
			</input>
			<output>
				<port id="4" precision="I64">
					<dim>2</dim>
				</port>
			</output>
		</layer>
		<layer id="309" name="Copy_const_fold_opt__1582/Output_0/Data__const" type="Const" version="opset1">
			<data element_type="i64" offset="468322" shape="2" size="16"/>
			<output>
				<port id="1" precision="I64">
					<dim>2</dim>
				</port>
			</output>
		</layer>
		<layer id="310" name="Concat__301" type="Concat" version="opset1">
			<data axis="0"/>
			<input>
				<port id="0">
					<dim>2</dim>
				</port>
				<port id="1">
					<dim>2</dim>
				</port>
			</input>
			<output>
				<port id="2" precision="I64">
					<dim>4</dim>
				</port>
			</output>
		</layer>
		<layer id="311" name="Resize__302/StridedSlice_sizes/Cast_140553_const" type="Const" version="opset1">
			<data element_type="i64" offset="441128" shape="1" size="8"/>
			<output>
				<port id="1" precision="I64">
					<dim>1</dim>
				</port>
			</output>
		</layer>
		<layer id="312" name="Resize__302/StridedSlice_sizes/Cast_240555_const" type="Const" version="opset1">
			<data element_type="i64" offset="441160" shape="1" size="8"/>
			<output>
				<port id="1" precision="I64">
					<dim>1</dim>
				</port>
			</output>
		</layer>
		<layer id="313" name="Resize__302/StridedSlice_sizes/Cast_340557_const" type="Const" version="opset1">
			<data element_type="i64" offset="441136" shape="1" size="8"/>
			<output>
				<port id="1" precision="I64">
					<dim>1</dim>
				</port>
			</output>
		</layer>
		<layer id="314" name="Resize__302/StridedSlice_sizes" type="StridedSlice" version="opset1">
			<data begin_mask="0" ellipsis_mask="0" end_mask="0" new_axis_mask="0" shrink_axis_mask="0"/>
			<input>
				<port id="0">
					<dim>4</dim>
				</port>
				<port id="1">
					<dim>1</dim>
				</port>
				<port id="2">
					<dim>1</dim>
				</port>
				<port id="3">
					<dim>1</dim>
				</port>
			</input>
			<output>
				<port id="4" precision="I64">
					<dim>2</dim>
				</port>
			</output>
		</layer>
		<layer id="315" name="7606" type="Convert" version="opset1">
			<data destination_type="f16"/>
			<input>
				<port id="0">
					<dim>4</dim>
				</port>
			</input>
			<output>
				<port id="1" precision="FP16">
					<dim>4</dim>
				</port>
			</output>
		</layer>
		<layer id="316" name="Resize__302/ShapeOf_" type="ShapeOf" version="opset3">
			<data output_type="i64"/>
			<input>
				<port id="0">
					<dim>2</dim>
					<dim>64</dim>
					<dim>5</dim>
					<dim>8</dim>
				</port>
			</input>
			<output>
				<port id="1" precision="I64">
					<dim>4</dim>
				</port>
			</output>
		</layer>
		<layer id="317" name="7605" type="Convert" version="opset1">
			<data destination_type="f16"/>
			<input>
				<port id="0">
					<dim>4</dim>
				</port>
			</input>
			<output>
				<port id="1" precision="FP16">
					<dim>4</dim>
				</port>
			</output>
		</layer>
		<layer id="318" name="Resize__302/Div_" type="Divide" version="opset1">
			<input>
				<port id="0">
					<dim>4</dim>
				</port>
				<port id="1">
					<dim>4</dim>
				</port>
			</input>
			<output>
				<port id="2" precision="FP16">
					<dim>4</dim>
				</port>
			</output>
		</layer>
		<layer id="319" name="Resize__302/Add__input_port_1/value7604_const" type="Const" version="opset1">
			<data element_type="f16" offset="441168" shape="1" size="2"/>
			<output>
				<port id="1" precision="FP16">
					<dim>1</dim>
				</port>
			</output>
		</layer>
		<layer id="320" name="Resize__302/Add_" type="Add" version="opset1">
			<input>
				<port id="0">
					<dim>4</dim>
				</port>
				<port id="1">
					<dim>1</dim>
				</port>
			</input>
			<output>
				<port id="2" precision="FP16">
					<dim>4</dim>
				</port>
			</output>
		</layer>
		<layer id="321" name="Resize__302/StridedSlice_scales/Cast_140717_const" type="Const" version="opset1">
			<data element_type="i64" offset="441128" shape="1" size="8"/>
			<output>
				<port id="1" precision="I64">
					<dim>1</dim>
				</port>
			</output>
		</layer>
		<layer id="322" name="Resize__302/StridedSlice_scales/Cast_240719_const" type="Const" version="opset1">
			<data element_type="i64" offset="441160" shape="1" size="8"/>
			<output>
				<port id="1" precision="I64">
					<dim>1</dim>
				</port>
			</output>
		</layer>
		<layer id="323" name="Resize__302/StridedSlice_scales/Cast_340721_const" type="Const" version="opset1">
			<data element_type="i64" offset="441136" shape="1" size="8"/>
			<output>
				<port id="1" precision="I64">
					<dim>1</dim>
				</port>
			</output>
		</layer>
		<layer id="324" name="Resize__302/StridedSlice_scales" type="StridedSlice" version="opset1">
			<data begin_mask="0" ellipsis_mask="0" end_mask="0" new_axis_mask="0" shrink_axis_mask="0"/>
			<input>
				<port id="0">
					<dim>4</dim>
				</port>
				<port id="1">
					<dim>1</dim>
				</port>
				<port id="2">
					<dim>1</dim>
				</port>
				<port id="3">
					<dim>1</dim>
				</port>
			</input>
			<output>
				<port id="4" precision="FP16">
					<dim>2</dim>
				</port>
			</output>
		</layer>
		<layer id="325" name="Resize__302/axis_7600_const" type="Const" version="opset1">
			<data element_type="i64" offset="441170" shape="2" size="16"/>
			<output>
				<port id="1" precision="I64">
					<dim>2</dim>
				</port>
			</output>
		</layer>
		<layer id="326" name="Resize__302" type="Interpolate" version="opset4">
			<data antialias="0" coordinate_transformation_mode="align_corners" cube_coeff="-0.75" mode="linear_onnx" nearest_mode="floor" pads_begin="0,0,0,0" pads_end="0,0,0,0" shape_calculation_mode="sizes"/>
			<input>
				<port id="0">
					<dim>2</dim>
					<dim>64</dim>
					<dim>5</dim>
					<dim>8</dim>
				</port>
				<port id="1">
					<dim>2</dim>
				</port>
				<port id="2">
					<dim>2</dim>
				</port>
				<port id="3">
					<dim>2</dim>
				</port>
			</input>
			<output>
				<port id="4" precision="FP16">
					<dim>2</dim>
					<dim>64</dim>
					<dim>9</dim>
					<dim>15</dim>
				</port>
			</output>
		</layer>
		<layer id="327" name="add_15/add" type="Add" version="opset1">
			<input>
				<port id="0">
					<dim>2</dim>
					<dim>64</dim>
					<dim>9</dim>
					<dim>15</dim>
				</port>
				<port id="1">
					<dim>2</dim>
					<dim>64</dim>
					<dim>9</dim>
					<dim>15</dim>
				</port>
			</input>
			<output>
				<port id="2" precision="FP16">
					<dim>2</dim>
					<dim>64</dim>
					<dim>9</dim>
					<dim>15</dim>
				</port>
			</output>
		</layer>
		<layer id="328" name="data_mul_179861799018692/EltwiseUnsqueeze19433_const" type="Const" version="opset1">
			<data element_type="f16" offset="468338" shape="1,64,1,1" size="128"/>
			<output>
				<port id="1" precision="FP16">
					<dim>1</dim>
					<dim>64</dim>
					<dim>1</dim>
					<dim>1</dim>
				</port>
			</output>
		</layer>
		<layer id="329" name="hourglass_hg_1_depth1_depth2_low3_1_conv1_BatchNorm/FusedBatchNormV3/mean/Fused_Mul_" type="Multiply" version="opset1">
			<input>
				<port id="0">
					<dim>2</dim>
					<dim>64</dim>
					<dim>9</dim>
					<dim>15</dim>
				</port>
				<port id="1">
					<dim>1</dim>
					<dim>64</dim>
					<dim>1</dim>
					<dim>1</dim>
				</port>
			</input>
			<output>
				<port id="2" precision="FP16">
					<dim>2</dim>
					<dim>64</dim>
					<dim>9</dim>
					<dim>15</dim>
				</port>
			</output>
		</layer>
		<layer id="330" name="data_add_179871799218693/EltwiseUnsqueeze19437_const" type="Const" version="opset1">
			<data element_type="f16" offset="468466" shape="1,64,1,1" size="128"/>
			<output>
				<port id="1" precision="FP16">
					<dim>1</dim>
					<dim>64</dim>
					<dim>1</dim>
					<dim>1</dim>
				</port>
			</output>
		</layer>
		<layer id="331" name="hourglass_hg_1_depth1_depth2_low3_1_conv1_BatchNorm/FusedBatchNormV3/variance/Fused_Add_" type="Add" version="opset1">
			<input>
				<port id="0">
					<dim>2</dim>
					<dim>64</dim>
					<dim>9</dim>
					<dim>15</dim>
				</port>
				<port id="1">
					<dim>1</dim>
					<dim>64</dim>
					<dim>1</dim>
					<dim>1</dim>
				</port>
			</input>
			<output>
				<port id="2" precision="FP16">
					<dim>2</dim>
					<dim>64</dim>
					<dim>9</dim>
					<dim>15</dim>
				</port>
			</output>
		</layer>
		<layer id="332" name="activation_41/Relu" type="ReLU" version="opset1">
			<input>
				<port id="0">
					<dim>2</dim>
					<dim>64</dim>
					<dim>9</dim>
					<dim>15</dim>
				</port>
			</input>
			<output>
				<port id="1" precision="FP16">
					<dim>2</dim>
					<dim>64</dim>
					<dim>9</dim>
					<dim>15</dim>
				</port>
			</output>
		</layer>
		<layer id="333" name="hourglass_hg_1_depth1_depth2_low3_1_conv1/BiasAdd_weights_fused_bn/Output_0/Data__const" type="Const" version="opset1">
			<data element_type="f16" offset="468594" shape="32,64,1,1" size="4096"/>
			<output>
				<port id="1" precision="FP16">
					<dim>32</dim>
					<dim>64</dim>
					<dim>1</dim>
					<dim>1</dim>
				</port>
			</output>
		</layer>
		<layer id="334" name="hourglass_hg_1_depth1_depth2_low3_1_conv1/BiasAdd/WithoutBiases" type="Convolution" version="opset1">
			<data dilations="1,1" output_padding="0,0" pads_begin="0,0" pads_end="0,0" strides="1,1"/>
			<input>
				<port id="0">
					<dim>2</dim>
					<dim>64</dim>
					<dim>9</dim>
					<dim>15</dim>
				</port>
				<port id="1">
					<dim>32</dim>
					<dim>64</dim>
					<dim>1</dim>
					<dim>1</dim>
				</port>
			</input>
			<output>
				<port id="2" precision="FP16">
					<dim>2</dim>
					<dim>32</dim>
					<dim>9</dim>
					<dim>15</dim>
				</port>
			</output>
		</layer>
		<layer id="335" name="hourglass_hg_1_depth1_depth2_low3_1_conv1/BiasAdd/Dims1022118569/EltwiseUnsqueeze19085_const" type="Const" version="opset1">
			<data element_type="f16" offset="472690" shape="1,32,1,1" size="64"/>
			<output>
				<port id="1" precision="FP16">
					<dim>1</dim>
					<dim>32</dim>
					<dim>1</dim>
					<dim>1</dim>
				</port>
			</output>
		</layer>
		<layer id="336" name="hourglass_hg_1_depth1_depth2_low3_1_conv1/BiasAdd" type="Add" version="opset1">
			<input>
				<port id="0">
					<dim>2</dim>
					<dim>32</dim>
					<dim>9</dim>
					<dim>15</dim>
				</port>
				<port id="1">
					<dim>1</dim>
					<dim>32</dim>
					<dim>1</dim>
					<dim>1</dim>
				</port>
			</input>
			<output>
				<port id="2" precision="FP16">
					<dim>2</dim>
					<dim>32</dim>
					<dim>9</dim>
					<dim>15</dim>
				</port>
			</output>
		</layer>
		<layer id="337" name="activation_42/Relu" type="ReLU" version="opset1">
			<input>
				<port id="0">
					<dim>2</dim>
					<dim>32</dim>
					<dim>9</dim>
					<dim>15</dim>
				</port>
			</input>
			<output>
				<port id="1" precision="FP16">
					<dim>2</dim>
					<dim>32</dim>
					<dim>9</dim>
					<dim>15</dim>
				</port>
			</output>
		</layer>
		<layer id="338" name="hourglass_hg_1_depth1_depth2_low3_1_conv2/BiasAdd_weights_fused_bn/Output_0/Data__const" type="Const" version="opset1">
			<data element_type="f16" offset="472754" shape="32,32,3,3" size="18432"/>
			<output>
				<port id="1" precision="FP16">
					<dim>32</dim>
					<dim>32</dim>
					<dim>3</dim>
					<dim>3</dim>
				</port>
			</output>
		</layer>
		<layer id="339" name="hourglass_hg_1_depth1_depth2_low3_1_conv2/BiasAdd/WithoutBiases" type="Convolution" version="opset1">
			<data dilations="1,1" output_padding="0,0" pads_begin="1,1" pads_end="1,1" strides="1,1"/>
			<input>
				<port id="0">
					<dim>2</dim>
					<dim>32</dim>
					<dim>9</dim>
					<dim>15</dim>
				</port>
				<port id="1">
					<dim>32</dim>
					<dim>32</dim>
					<dim>3</dim>
					<dim>3</dim>
				</port>
			</input>
			<output>
				<port id="2" precision="FP16">
					<dim>2</dim>
					<dim>32</dim>
					<dim>9</dim>
					<dim>15</dim>
				</port>
			</output>
		</layer>
		<layer id="340" name="hourglass_hg_1_depth1_depth2_low3_1_conv2/BiasAdd/Dims1002318536/EltwiseUnsqueeze18953_const" type="Const" version="opset1">
			<data element_type="f16" offset="491186" shape="1,32,1,1" size="64"/>
			<output>
				<port id="1" precision="FP16">
					<dim>1</dim>
					<dim>32</dim>
					<dim>1</dim>
					<dim>1</dim>
				</port>
			</output>
		</layer>
		<layer id="341" name="hourglass_hg_1_depth1_depth2_low3_1_conv2/BiasAdd" type="Add" version="opset1">
			<input>
				<port id="0">
					<dim>2</dim>
					<dim>32</dim>
					<dim>9</dim>
					<dim>15</dim>
				</port>
				<port id="1">
					<dim>1</dim>
					<dim>32</dim>
					<dim>1</dim>
					<dim>1</dim>
				</port>
			</input>
			<output>
				<port id="2" precision="FP16">
					<dim>2</dim>
					<dim>32</dim>
					<dim>9</dim>
					<dim>15</dim>
				</port>
			</output>
		</layer>
		<layer id="342" name="activation_43/Relu" type="ReLU" version="opset1">
			<input>
				<port id="0">
					<dim>2</dim>
					<dim>32</dim>
					<dim>9</dim>
					<dim>15</dim>
				</port>
			</input>
			<output>
				<port id="1" precision="FP16">
					<dim>2</dim>
					<dim>32</dim>
					<dim>9</dim>
					<dim>15</dim>
				</port>
			</output>
		</layer>
		<layer id="343" name="hourglass_hg_1_depth1_depth2_low3_1_conv3/Conv2D/ReadVariableOp:0/Output_0/Data__const" type="Const" version="opset1">
			<data element_type="f16" offset="491250" shape="64,32,1,1" size="4096"/>
			<output>
				<port id="1" precision="FP16">
					<dim>64</dim>
					<dim>32</dim>
					<dim>1</dim>
					<dim>1</dim>
				</port>
			</output>
		</layer>
		<layer id="344" name="hourglass_hg_1_depth1_depth2_low3_1_conv3/BiasAdd/WithoutBiases" type="Convolution" version="opset1">
			<data dilations="1,1" output_padding="0,0" pads_begin="0,0" pads_end="0,0" strides="1,1"/>
			<input>
				<port id="0">
					<dim>2</dim>
					<dim>32</dim>
					<dim>9</dim>
					<dim>15</dim>
				</port>
				<port id="1">
					<dim>64</dim>
					<dim>32</dim>
					<dim>1</dim>
					<dim>1</dim>
				</port>
			</input>
			<output>
				<port id="2" precision="FP16">
					<dim>2</dim>
					<dim>64</dim>
					<dim>9</dim>
					<dim>15</dim>
				</port>
			</output>
		</layer>
		<layer id="345" name="hourglass_hg_1_depth1_depth2_low3_1_conv3/BiasAdd/Dims1046118609/EltwiseUnsqueeze19245_const" type="Const" version="opset1">
			<data element_type="f16" offset="495346" shape="1,64,1,1" size="128"/>
			<output>
				<port id="1" precision="FP16">
					<dim>1</dim>
					<dim>64</dim>
					<dim>1</dim>
					<dim>1</dim>
				</port>
			</output>
		</layer>
		<layer id="346" name="hourglass_hg_1_depth1_depth2_low3_1_conv3/BiasAdd" type="Add" version="opset1">
			<input>
				<port id="0">
					<dim>2</dim>
					<dim>64</dim>
					<dim>9</dim>
					<dim>15</dim>
				</port>
				<port id="1">
					<dim>1</dim>
					<dim>64</dim>
					<dim>1</dim>
					<dim>1</dim>
				</port>
			</input>
			<output>
				<port id="2" precision="FP16">
					<dim>2</dim>
					<dim>64</dim>
					<dim>9</dim>
					<dim>15</dim>
				</port>
			</output>
		</layer>
		<layer id="347" name="add_16/add" type="Add" version="opset1">
			<input>
				<port id="0">
					<dim>2</dim>
					<dim>64</dim>
					<dim>9</dim>
					<dim>15</dim>
				</port>
				<port id="1">
					<dim>2</dim>
					<dim>64</dim>
					<dim>9</dim>
					<dim>15</dim>
				</port>
			</input>
			<output>
				<port id="2" precision="FP16">
					<dim>2</dim>
					<dim>64</dim>
					<dim>9</dim>
					<dim>15</dim>
				</port>
			</output>
		</layer>
		<layer id="348" name="Shape__358" type="ShapeOf" version="opset3">
			<data output_type="i64"/>
			<input>
				<port id="0">
					<dim>2</dim>
					<dim>64</dim>
					<dim>9</dim>
					<dim>15</dim>
				</port>
			</input>
			<output>
				<port id="1" precision="I64">
					<dim>4</dim>
				</port>
			</output>
		</layer>
		<layer id="349" name="Slice__360/Cast_140565_const" type="Const" version="opset1">
			<data element_type="i64" offset="441120" shape="1" size="8"/>
			<output>
				<port id="1" precision="I64">
					<dim>1</dim>
				</port>
			</output>
		</layer>
		<layer id="350" name="Slice__360/Cast_240567_const" type="Const" version="opset1">
			<data element_type="i64" offset="441128" shape="1" size="8"/>
			<output>
				<port id="1" precision="I64">
					<dim>1</dim>
				</port>
			</output>
		</layer>
		<layer id="351" name="Slice__360/Cast_340569_const" type="Const" version="opset1">
			<data element_type="i64" offset="441136" shape="1" size="8"/>
			<output>
				<port id="1" precision="I64">
					<dim>1</dim>
				</port>
			</output>
		</layer>
		<layer id="352" name="Slice__360" type="StridedSlice" version="opset1">
			<data begin_mask="1" ellipsis_mask="0" end_mask="0" new_axis_mask="0" shrink_axis_mask="0"/>
			<input>
				<port id="0">
					<dim>4</dim>
				</port>
				<port id="1">
					<dim>1</dim>
				</port>
				<port id="2">
					<dim>1</dim>
				</port>
				<port id="3">
					<dim>1</dim>
				</port>
			</input>
			<output>
				<port id="4" precision="I64">
					<dim>2</dim>
				</port>
			</output>
		</layer>
		<layer id="353" name="Copy_const_fold_opt__1573/Output_0/Data__const" type="Const" version="opset1">
			<data element_type="i64" offset="495474" shape="2" size="16"/>
			<output>
				<port id="1" precision="I64">
					<dim>2</dim>
				</port>
…
		<edge from-layer="595" from-port="1" to-layer="596" to-port="1"/>
		<edge from-layer="596" from-port="2" to-layer="598" to-port="0"/>
		<edge from-layer="597" from-port="1" to-layer="598" to-port="1"/>
		<edge from-layer="598" from-port="2" to-layer="599" to-port="0"/>
		<edge from-layer="599" from-port="1" to-layer="601" to-port="0"/>
		<edge from-layer="600" from-port="1" to-layer="601" to-port="1"/>
		<edge from-layer="601" from-port="2" to-layer="603" to-port="0"/>
		<edge from-layer="602" from-port="1" to-layer="603" to-port="1"/>
		<edge from-layer="603" from-port="2" to-layer="604" to-port="0"/>
		<edge from-layer="604" from-port="1" to-layer="606" to-port="0"/>
		<edge from-layer="605" from-port="1" to-layer="606" to-port="1"/>
		<edge from-layer="606" from-port="2" to-layer="608" to-port="0"/>
		<edge from-layer="607" from-port="1" to-layer="608" to-port="1"/>
		<edge from-layer="608" from-port="2" to-layer="609" to-port="0"/>
		<edge from-layer="609" from-port="1" to-layer="611" to-port="0"/>
		<edge from-layer="610" from-port="1" to-layer="611" to-port="1"/>
		<edge from-layer="611" from-port="2" to-layer="613" to-port="0"/>
		<edge from-layer="612" from-port="1" to-layer="613" to-port="1"/>
		<edge from-layer="613" from-port="2" to-layer="614" to-port="0"/>
		<edge from-layer="594" from-port="1" to-layer="614" to-port="1"/>
		<edge from-layer="614" from-port="2" to-layer="616" to-port="0"/>
		<edge from-layer="615" from-port="1" to-layer="616" to-port="1"/>
		<edge from-layer="616" from-port="2" to-layer="618" to-port="0"/>
		<edge from-layer="617" from-port="1" to-layer="618" to-port="1"/>
		<edge from-layer="618" from-port="2" to-layer="619" to-port="0"/>
		<edge from-layer="619" from-port="1" to-layer="621" to-port="0"/>
		<edge from-layer="620" from-port="1" to-layer="621" to-port="1"/>
		<edge from-layer="621" from-port="2" to-layer="623" to-port="0"/>
		<edge from-layer="622" from-port="1" to-layer="623" to-port="1"/>
		<edge from-layer="623" from-port="2" to-layer="624" to-port="0"/>
		<edge from-layer="624" from-port="1" to-layer="626" to-port="0"/>
		<edge from-layer="625" from-port="1" to-layer="626" to-port="1"/>
		<edge from-layer="626" from-port="2" to-layer="628" to-port="0"/>
		<edge from-layer="627" from-port="1" to-layer="628" to-port="1"/>
		<edge from-layer="628" from-port="2" to-layer="629" to-port="0"/>
		<edge from-layer="629" from-port="1" to-layer="631" to-port="0"/>
		<edge from-layer="630" from-port="1" to-layer="631" to-port="1"/>
		<edge from-layer="631" from-port="2" to-layer="633" to-port="0"/>
		<edge from-layer="632" from-port="1" to-layer="633" to-port="1"/>
		<edge from-layer="633" from-port="2" to-layer="634" to-port="0"/>
		<edge from-layer="614" from-port="2" to-layer="634" to-port="1"/>
		<edge from-layer="634" from-port="2" to-layer="636" to-port="0"/>
		<edge from-layer="635" from-port="1" to-layer="636" to-port="1"/>
		<edge from-layer="636" from-port="2" to-layer="638" to-port="0"/>
		<edge from-layer="637" from-port="1" to-layer="638" to-port="1"/>
		<edge from-layer="638" from-port="2" to-layer="639" to-port="0"/>
		<edge from-layer="639" from-port="1" to-layer="641" to-port="0"/>
		<edge from-layer="640" from-port="1" to-layer="641" to-port="1"/>
		<edge from-layer="641" from-port="2" to-layer="643" to-port="0"/>
		<edge from-layer="642" from-port="1" to-layer="643" to-port="1"/>
		<edge from-layer="643" from-port="2" to-layer="644" to-port="0"/>
		<edge from-layer="644" from-port="1" to-layer="646" to-port="0"/>
		<edge from-layer="645" from-port="1" to-layer="646" to-port="1"/>
		<edge from-layer="646" from-port="2" to-layer="648" to-port="0"/>
		<edge from-layer="647" from-port="1" to-layer="648" to-port="1"/>
		<edge from-layer="648" from-port="2" to-layer="649" to-port="0"/>
		<edge from-layer="649" from-port="1" to-layer="651" to-port="0"/>
		<edge from-layer="650" from-port="1" to-layer="651" to-port="1"/>
		<edge from-layer="651" from-port="2" to-layer="653" to-port="0"/>
		<edge from-layer="652" from-port="1" to-layer="653" to-port="1"/>
		<edge from-layer="653" from-port="2" to-layer="654" to-port="0"/>
		<edge from-layer="634" from-port="2" to-layer="654" to-port="1"/>
		<edge from-layer="654" from-port="2" to-layer="655" to-port="0"/>
		<edge from-layer="655" from-port="1" to-layer="659" to-port="0"/>
		<edge from-layer="656" from-port="1" to-layer="659" to-port="1"/>
		<edge from-layer="657" from-port="1" to-layer="659" to-port="2"/>
		<edge from-layer="658" from-port="1" to-layer="659" to-port="3"/>
		<edge from-layer="659" from-port="4" to-layer="661" to-port="0"/>
		<edge from-layer="660" from-port="1" to-layer="661" to-port="1"/>
		<edge from-layer="661" from-port="2" to-layer="665" to-port="0"/>
		<edge from-layer="662" from-port="1" to-layer="665" to-port="1"/>
		<edge from-layer="663" from-port="1" to-layer="665" to-port="2"/>
		<edge from-layer="664" from-port="1" to-layer="665" to-port="3"/>
		<edge from-layer="661" from-port="2" to-layer="666" to-port="0"/>
		<edge from-layer="654" from-port="2" to-layer="667" to-port="0"/>
		<edge from-layer="667" from-port="1" to-layer="668" to-port="0"/>
		<edge from-layer="666" from-port="1" to-layer="669" to-port="0"/>
		<edge from-layer="668" from-port="1" to-layer="669" to-port="1"/>
		<edge from-layer="669" from-port="2" to-layer="671" to-port="0"/>
		<edge from-layer="670" from-port="1" to-layer="671" to-port="1"/>
		<edge from-layer="671" from-port="2" to-layer="675" to-port="0"/>
		<edge from-layer="672" from-port="1" to-layer="675" to-port="1"/>
		<edge from-layer="673" from-port="1" to-layer="675" to-port="2"/>
		<edge from-layer="674" from-port="1" to-layer="675" to-port="3"/>
		<edge from-layer="654" from-port="2" to-layer="677" to-port="0"/>
		<edge from-layer="665" from-port="4" to-layer="677" to-port="1"/>
		<edge from-layer="675" from-port="4" to-layer="677" to-port="2"/>
		<edge from-layer="676" from-port="1" to-layer="677" to-port="3"/>
		<edge from-layer="593" from-port="2" to-layer="678" to-port="0"/>
		<edge from-layer="677" from-port="4" to-layer="678" to-port="1"/>
		<edge from-layer="678" from-port="2" to-layer="680" to-port="0"/>
		<edge from-layer="679" from-port="1" to-layer="680" to-port="1"/>
		<edge from-layer="680" from-port="2" to-layer="682" to-port="0"/>
		<edge from-layer="681" from-port="1" to-layer="682" to-port="1"/>
		<edge from-layer="682" from-port="2" to-layer="683" to-port="0"/>
		<edge from-layer="683" from-port="1" to-layer="685" to-port="0"/>
		<edge from-layer="684" from-port="1" to-layer="685" to-port="1"/>
		<edge from-layer="685" from-port="2" to-layer="687" to-port="0"/>
		<edge from-layer="686" from-port="1" to-layer="687" to-port="1"/>
		<edge from-layer="687" from-port="2" to-layer="688" to-port="0"/>
		<edge from-layer="688" from-port="1" to-layer="690" to-port="0"/>
		<edge from-layer="689" from-port="1" to-layer="690" to-port="1"/>
		<edge from-layer="690" from-port="2" to-layer="692" to-port="0"/>
		<edge from-layer="691" from-port="1" to-layer="692" to-port="1"/>
		<edge from-layer="692" from-port="2" to-layer="693" to-port="0"/>
		<edge from-layer="693" from-port="1" to-layer="695" to-port="0"/>
		<edge from-layer="694" from-port="1" to-layer="695" to-port="1"/>
		<edge from-layer="695" from-port="2" to-layer="697" to-port="0"/>
		<edge from-layer="696" from-port="1" to-layer="697" to-port="1"/>
		<edge from-layer="697" from-port="2" to-layer="698" to-port="0"/>
		<edge from-layer="678" from-port="2" to-layer="698" to-port="1"/>
		<edge from-layer="698" from-port="2" to-layer="699" to-port="0"/>
		<edge from-layer="699" from-port="1" to-layer="703" to-port="0"/>
		<edge from-layer="700" from-port="1" to-layer="703" to-port="1"/>
		<edge from-layer="701" from-port="1" to-layer="703" to-port="2"/>
		<edge from-layer="702" from-port="1" to-layer="703" to-port="3"/>
		<edge from-layer="703" from-port="4" to-layer="705" to-port="0"/>
		<edge from-layer="704" from-port="1" to-layer="705" to-port="1"/>
		<edge from-layer="705" from-port="2" to-layer="709" to-port="0"/>
		<edge from-layer="706" from-port="1" to-layer="709" to-port="1"/>
		<edge from-layer="707" from-port="1" to-layer="709" to-port="2"/>
		<edge from-layer="708" from-port="1" to-layer="709" to-port="3"/>
		<edge from-layer="705" from-port="2" to-layer="710" to-port="0"/>
		<edge from-layer="698" from-port="2" to-layer="711" to-port="0"/>
		<edge from-layer="711" from-port="1" to-layer="712" to-port="0"/>
		<edge from-layer="710" from-port="1" to-layer="713" to-port="0"/>
		<edge from-layer="712" from-port="1" to-layer="713" to-port="1"/>
		<edge from-layer="713" from-port="2" to-layer="715" to-port="0"/>
		<edge from-layer="714" from-port="1" to-layer="715" to-port="1"/>
		<edge from-layer="715" from-port="2" to-layer="719" to-port="0"/>
		<edge from-layer="716" from-port="1" to-layer="719" to-port="1"/>
		<edge from-layer="717" from-port="1" to-layer="719" to-port="2"/>
		<edge from-layer="718" from-port="1" to-layer="719" to-port="3"/>
		<edge from-layer="698" from-port="2" to-layer="721" to-port="0"/>
		<edge from-layer="709" from-port="4" to-layer="721" to-port="1"/>
		<edge from-layer="719" from-port="4" to-layer="721" to-port="2"/>
		<edge from-layer="720" from-port="1" to-layer="721" to-port="3"/>
		<edge from-layer="552" from-port="2" to-layer="722" to-port="0"/>
		<edge from-layer="721" from-port="4" to-layer="722" to-port="1"/>
		<edge from-layer="722" from-port="2" to-layer="724" to-port="0"/>
		<edge from-layer="723" from-port="1" to-layer="724" to-port="1"/>
		<edge from-layer="724" from-port="2" to-layer="726" to-port="0"/>
		<edge from-layer="725" from-port="1" to-layer="726" to-port="1"/>
		<edge from-layer="726" from-port="2" to-layer="727" to-port="0"/>
		<edge from-layer="727" from-port="1" to-layer="729" to-port="0"/>
		<edge from-layer="728" from-port="1" to-layer="729" to-port="1"/>
		<edge from-layer="729" from-port="2" to-layer="731" to-port="0"/>
		<edge from-layer="730" from-port="1" to-layer="731" to-port="1"/>
		<edge from-layer="731" from-port="2" to-layer="732" to-port="0"/>
		<edge from-layer="732" from-port="1" to-layer="734" to-port="0"/>
		<edge from-layer="733" from-port="1" to-layer="734" to-port="1"/>
		<edge from-layer="734" from-port="2" to-layer="736" to-port="0"/>
		<edge from-layer="735" from-port="1" to-layer="736" to-port="1"/>
		<edge from-layer="736" from-port="2" to-layer="737" to-port="0"/>
		<edge from-layer="737" from-port="1" to-layer="739" to-port="0"/>
		<edge from-layer="738" from-port="1" to-layer="739" to-port="1"/>
		<edge from-layer="739" from-port="2" to-layer="741" to-port="0"/>
		<edge from-layer="740" from-port="1" to-layer="741" to-port="1"/>
		<edge from-layer="741" from-port="2" to-layer="742" to-port="0"/>
		<edge from-layer="722" from-port="2" to-layer="742" to-port="1"/>
		<edge from-layer="742" from-port="2" to-layer="743" to-port="0"/>
		<edge from-layer="743" from-port="1" to-layer="747" to-port="0"/>
		<edge from-layer="744" from-port="1" to-layer="747" to-port="1"/>
		<edge from-layer="745" from-port="1" to-layer="747" to-port="2"/>
		<edge from-layer="746" from-port="1" to-layer="747" to-port="3"/>
		<edge from-layer="747" from-port="4" to-layer="749" to-port="0"/>
		<edge from-layer="748" from-port="1" to-layer="749" to-port="1"/>
		<edge from-layer="749" from-port="2" to-layer="753" to-port="0"/>
		<edge from-layer="750" from-port="1" to-layer="753" to-port="1"/>
		<edge from-layer="751" from-port="1" to-layer="753" to-port="2"/>
		<edge from-layer="752" from-port="1" to-layer="753" to-port="3"/>
		<edge from-layer="749" from-port="2" to-layer="754" to-port="0"/>
		<edge from-layer="742" from-port="2" to-layer="755" to-port="0"/>
		<edge from-layer="755" from-port="1" to-layer="756" to-port="0"/>
		<edge from-layer="754" from-port="1" to-layer="757" to-port="0"/>
		<edge from-layer="756" from-port="1" to-layer="757" to-port="1"/>
		<edge from-layer="757" from-port="2" to-layer="759" to-port="0"/>
		<edge from-layer="758" from-port="1" to-layer="759" to-port="1"/>
		<edge from-layer="759" from-port="2" to-layer="763" to-port="0"/>
		<edge from-layer="760" from-port="1" to-layer="763" to-port="1"/>
		<edge from-layer="761" from-port="1" to-layer="763" to-port="2"/>
		<edge from-layer="762" from-port="1" to-layer="763" to-port="3"/>
		<edge from-layer="742" from-port="2" to-layer="765" to-port="0"/>
		<edge from-layer="753" from-port="4" to-layer="765" to-port="1"/>
		<edge from-layer="763" from-port="4" to-layer="765" to-port="2"/>
		<edge from-layer="764" from-port="1" to-layer="765" to-port="3"/>
		<edge from-layer="511" from-port="2" to-layer="766" to-port="0"/>
		<edge from-layer="765" from-port="4" to-layer="766" to-port="1"/>
		<edge from-layer="766" from-port="2" to-layer="768" to-port="0"/>
		<edge from-layer="767" from-port="1" to-layer="768" to-port="1"/>
		<edge from-layer="768" from-port="2" to-layer="770" to-port="0"/>
		<edge from-layer="769" from-port="1" to-layer="770" to-port="1"/>
		<edge from-layer="770" from-port="2" to-layer="771" to-port="0"/>
		<edge from-layer="771" from-port="1" to-layer="773" to-port="0"/>
		<edge from-layer="772" from-port="1" to-layer="773" to-port="1"/>
		<edge from-layer="773" from-port="2" to-layer="775" to-port="0"/>
		<edge from-layer="774" from-port="1" to-layer="775" to-port="1"/>
		<edge from-layer="775" from-port="2" to-layer="776" to-port="0"/>
		<edge from-layer="776" from-port="1" to-layer="778" to-port="0"/>
		<edge from-layer="777" from-port="1" to-layer="778" to-port="1"/>
		<edge from-layer="778" from-port="2" to-layer="780" to-port="0"/>
		<edge from-layer="779" from-port="1" to-layer="780" to-port="1"/>
		<edge from-layer="780" from-port="2" to-layer="781" to-port="0"/>
		<edge from-layer="781" from-port="1" to-layer="783" to-port="0"/>
		<edge from-layer="782" from-port="1" to-layer="783" to-port="1"/>
		<edge from-layer="783" from-port="2" to-layer="785" to-port="0"/>
		<edge from-layer="784" from-port="1" to-layer="785" to-port="1"/>
		<edge from-layer="785" from-port="2" to-layer="786" to-port="0"/>
		<edge from-layer="766" from-port="2" to-layer="786" to-port="1"/>
		<edge from-layer="786" from-port="2" to-layer="787" to-port="0"/>
		<edge from-layer="787" from-port="1" to-layer="791" to-port="0"/>
		<edge from-layer="788" from-port="1" to-layer="791" to-port="1"/>
		<edge from-layer="789" from-port="1" to-layer="791" to-port="2"/>
		<edge from-layer="790" from-port="1" to-layer="791" to-port="3"/>
		<edge from-layer="791" from-port="4" to-layer="793" to-port="0"/>
		<edge from-layer="792" from-port="1" to-layer="793" to-port="1"/>
		<edge from-layer="793" from-port="2" to-layer="797" to-port="0"/>
		<edge from-layer="794" from-port="1" to-layer="797" to-port="1"/>
		<edge from-layer="795" from-port="1" to-layer="797" to-port="2"/>
		<edge from-layer="796" from-port="1" to-layer="797" to-port="3"/>
		<edge from-layer="793" from-port="2" to-layer="798" to-port="0"/>
		<edge from-layer="786" from-port="2" to-layer="799" to-port="0"/>
		<edge from-layer="799" from-port="1" to-layer="800" to-port="0"/>
		<edge from-layer="798" from-port="1" to-layer="801" to-port="0"/>
		<edge from-layer="800" from-port="1" to-layer="801" to-port="1"/>
		<edge from-layer="801" from-port="2" to-layer="803" to-port="0"/>
		<edge from-layer="802" from-port="1" to-layer="803" to-port="1"/>
		<edge from-layer="803" from-port="2" to-layer="807" to-port="0"/>
		<edge from-layer="804" from-port="1" to-layer="807" to-port="1"/>
		<edge from-layer="805" from-port="1" to-layer="807" to-port="2"/>
		<edge from-layer="806" from-port="1" to-layer="807" to-port="3"/>
		<edge from-layer="786" from-port="2" to-layer="809" to-port="0"/>
		<edge from-layer="797" from-port="4" to-layer="809" to-port="1"/>
		<edge from-layer="807" from-port="4" to-layer="809" to-port="2"/>
		<edge from-layer="808" from-port="1" to-layer="809" to-port="3"/>
		<edge from-layer="470" from-port="2" to-layer="810" to-port="0"/>
		<edge from-layer="809" from-port="4" to-layer="810" to-port="1"/>
		<edge from-layer="810" from-port="2" to-layer="812" to-port="0"/>
		<edge from-layer="811" from-port="1" to-layer="812" to-port="1"/>
		<edge from-layer="812" from-port="2" to-layer="814" to-port="0"/>
		<edge from-layer="813" from-port="1" to-layer="814" to-port="1"/>
		<edge from-layer="814" from-port="2" to-layer="815" to-port="0"/>
		<edge from-layer="815" from-port="1" to-layer="817" to-port="0"/>
		<edge from-layer="816" from-port="1" to-layer="817" to-port="1"/>
		<edge from-layer="817" from-port="2" to-layer="819" to-port="0"/>
		<edge from-layer="818" from-port="1" to-layer="819" to-port="1"/>
		<edge from-layer="819" from-port="2" to-layer="820" to-port="0"/>
		<edge from-layer="820" from-port="1" to-layer="822" to-port="0"/>
		<edge from-layer="821" from-port="1" to-layer="822" to-port="1"/>
		<edge from-layer="822" from-port="2" to-layer="824" to-port="0"/>
		<edge from-layer="823" from-port="1" to-layer="824" to-port="1"/>
		<edge from-layer="824" from-port="2" to-layer="825" to-port="0"/>
		<edge from-layer="825" from-port="1" to-layer="827" to-port="0"/>
		<edge from-layer="826" from-port="1" to-layer="827" to-port="1"/>
		<edge from-layer="827" from-port="2" to-layer="829" to-port="0"/>
		<edge from-layer="828" from-port="1" to-layer="829" to-port="1"/>
		<edge from-layer="829" from-port="2" to-layer="830" to-port="0"/>
		<edge from-layer="810" from-port="2" to-layer="830" to-port="1"/>
		<edge from-layer="830" from-port="2" to-layer="832" to-port="0"/>
		<edge from-layer="831" from-port="1" to-layer="832" to-port="1"/>
		<edge from-layer="832" from-port="2" to-layer="834" to-port="0"/>
		<edge from-layer="833" from-port="1" to-layer="834" to-port="1"/>
		<edge from-layer="834" from-port="2" to-layer="835" to-port="0"/>
		<edge from-layer="835" from-port="1" to-layer="837" to-port="0"/>
		<edge from-layer="836" from-port="1" to-layer="837" to-port="1"/>
		<edge from-layer="837" from-port="2" to-layer="839" to-port="0"/>
		<edge from-layer="838" from-port="1" to-layer="839" to-port="1"/>
		<edge from-layer="839" from-port="2" to-layer="841" to-port="0"/>
		<edge from-layer="840" from-port="1" to-layer="841" to-port="1"/>
		<edge from-layer="841" from-port="2" to-layer="843" to-port="0"/>
		<edge from-layer="842" from-port="1" to-layer="843" to-port="1"/>
		<edge from-layer="450" from-port="2" to-layer="844" to-port="0"/>
		<edge from-layer="843" from-port="2" to-layer="844" to-port="1"/>
		<edge from-layer="835" from-port="1" to-layer="845" to-port="0"/>
		<edge from-layer="844" from-port="2" to-layer="845" to-port="1"/>
		<edge from-layer="845" from-port="2" to-layer="847" to-port="0"/>
		<edge from-layer="846" from-port="1" to-layer="847" to-port="1"/>
		<edge from-layer="847" from-port="2" to-layer="849" to-port="0"/>
		<edge from-layer="848" from-port="1" to-layer="849" to-port="1"/>
		<edge from-layer="849" from-port="2" to-layer="850" to-port="0"/>
		<edge from-layer="850" from-port="1" to-layer="852" to-port="0"/>
		<edge from-layer="851" from-port="1" to-layer="852" to-port="1"/>
		<edge from-layer="852" from-port="2" to-layer="854" to-port="0"/>
		<edge from-layer="853" from-port="1" to-layer="854" to-port="1"/>
		<edge from-layer="854" from-port="2" to-layer="855" to-port="0"/>
		<edge from-layer="855" from-port="1" to-layer="857" to-port="0"/>
		<edge from-layer="856" from-port="1" to-layer="857" to-port="1"/>
		<edge from-layer="857" from-port="2" to-layer="859" to-port="0"/>
		<edge from-layer="858" from-port="1" to-layer="859" to-port="1"/>
		<edge from-layer="859" from-port="2" to-layer="860" to-port="0"/>
		<edge from-layer="860" from-port="1" to-layer="862" to-port="0"/>
		<edge from-layer="861" from-port="1" to-layer="862" to-port="1"/>
		<edge from-layer="862" from-port="2" to-layer="864" to-port="0"/>
		<edge from-layer="863" from-port="1" to-layer="864" to-port="1"/>
		<edge from-layer="864" from-port="2" to-layer="865" to-port="0"/>
		<edge from-layer="845" from-port="2" to-layer="865" to-port="1"/>
		<edge from-layer="845" from-port="2" to-layer="866" to-port="0"/>
		<edge from-layer="866" from-port="1" to-layer="868" to-port="0"/>
		<edge from-layer="867" from-port="1" to-layer="868" to-port="1"/>
		<edge from-layer="868" from-port="2" to-layer="870" to-port="0"/>
		<edge from-layer="869" from-port="1" to-layer="870" to-port="1"/>
		<edge from-layer="870" from-port="2" to-layer="871" to-port="0"/>
		<edge from-layer="871" from-port="1" to-layer="873" to-port="0"/>
		<edge from-layer="872" from-port="1" to-layer="873" to-port="1"/>
		<edge from-layer="873" from-port="2" to-layer="875" to-port="0"/>
		<edge from-layer="874" from-port="1" to-layer="875" to-port="1"/>
		<edge from-layer="875" from-port="2" to-layer="876" to-port="0"/>
		<edge from-layer="876" from-port="1" to-layer="878" to-port="0"/>
		<edge from-layer="877" from-port="1" to-layer="878" to-port="1"/>
		<edge from-layer="878" from-port="2" to-layer="880" to-port="0"/>
		<edge from-layer="879" from-port="1" to-layer="880" to-port="1"/>
		<edge from-layer="880" from-port="2" to-layer="881" to-port="0"/>
		<edge from-layer="881" from-port="1" to-layer="883" to-port="0"/>
		<edge from-layer="882" from-port="1" to-layer="883" to-port="1"/>
		<edge from-layer="883" from-port="2" to-layer="885" to-port="0"/>
		<edge from-layer="884" from-port="1" to-layer="885" to-port="1"/>
		<edge from-layer="885" from-port="2" to-layer="886" to-port="0"/>
		<edge from-layer="866" from-port="1" to-layer="886" to-port="1"/>
		<edge from-layer="886" from-port="2" to-layer="888" to-port="0"/>
		<edge from-layer="887" from-port="1" to-layer="888" to-port="1"/>
		<edge from-layer="888" from-port="2" to-layer="890" to-port="0"/>
		<edge from-layer="889" from-port="1" to-layer="890" to-port="1"/>
		<edge from-layer="890" from-port="2" to-layer="891" to-port="0"/>
		<edge from-layer="891" from-port="1" to-layer="893" to-port="0"/>
		<edge from-layer="892" from-port="1" to-layer="893" to-port="1"/>
		<edge from-layer="893" from-port="2" to-layer="895" to-port="0"/>
		<edge from-layer="894" from-port="1" to-layer="895" to-port="1"/>
		<edge from-layer="895" from-port="2" to-layer="896" to-port="0"/>
		<edge from-layer="896" from-port="1" to-layer="898" to-port="0"/>
		<edge from-layer="897" from-port="1" to-layer="898" to-port="1"/>
		<edge from-layer="898" from-port="2" to-layer="900" to-port="0"/>
		<edge from-layer="899" from-port="1" to-layer="900" to-port="1"/>
		<edge from-layer="900" from-port="2" to-layer="901" to-port="0"/>
		<edge from-layer="901" from-port="1" to-layer="903" to-port="0"/>
		<edge from-layer="902" from-port="1" to-layer="903" to-port="1"/>
		<edge from-layer="903" from-port="2" to-layer="905" to-port="0"/>
		<edge from-layer="904" from-port="1" to-layer="905" to-port="1"/>
		<edge from-layer="905" from-port="2" to-layer="906" to-port="0"/>
		<edge from-layer="886" from-port="2" to-layer="906" to-port="1"/>
		<edge from-layer="886" from-port="2" to-layer="907" to-port="0"/>
		<edge from-layer="907" from-port="1" to-layer="909" to-port="0"/>
		<edge from-layer="908" from-port="1" to-layer="909" to-port="1"/>
		<edge from-layer="909" from-port="2" to-layer="911" to-port="0"/>
		<edge from-layer="910" from-port="1" to-layer="911" to-port="1"/>
		<edge from-layer="911" from-port="2" to-layer="912" to-port="0"/>
		<edge from-layer="912" from-port="1" to-layer="914" to-port="0"/>
		<edge from-layer="913" from-port="1" to-layer="914" to-port="1"/>
		<edge from-layer="914" from-port="2" to-layer="916" to-port="0"/>
		<edge from-layer="915" from-port="1" to-layer="916" to-port="1"/>
		<edge from-layer="916" from-port="2" to-layer="917" to-port="0"/>
		<edge from-layer="917" from-port="1" to-layer="919" to-port="0"/>
		<edge from-layer="918" from-port="1" to-layer="919" to-port="1"/>
		<edge from-layer="919" from-port="2" to-layer="921" to-port="0"/>
		<edge from-layer="920" from-port="1" to-layer="921" to-port="1"/>
		<edge from-layer="921" from-port="2" to-layer="922" to-port="0"/>
		<edge from-layer="922" from-port="1" to-layer="924" to-port="0"/>
		<edge from-layer="923" from-port="1" to-layer="924" to-port="1"/>
		<edge from-layer="924" from-port="2" to-layer="926" to-port="0"/>
		<edge from-layer="925" from-port="1" to-layer="926" to-port="1"/>
		<edge from-layer="926" from-port="2" to-layer="927" to-port="0"/>
		<edge from-layer="907" from-port="1" to-layer="927" to-port="1"/>
		<edge from-layer="927" from-port="2" to-layer="929" to-port="0"/>
		<edge from-layer="928" from-port="1" to-layer="929" to-port="1"/>
		<edge from-layer="929" from-port="2" to-layer="931" to-port="0"/>
		<edge from-layer="930" from-port="1" to-layer="931" to-port="1"/>
		<edge from-layer="931" from-port="2" to-layer="932" to-port="0"/>
		<edge from-layer="932" from-port="1" to-layer="934" to-port="0"/>
		<edge from-layer="933" from-port="1" to-layer="934" to-port="1"/>
		<edge from-layer="934" from-port="2" to-layer="936" to-port="0"/>
		<edge from-layer="935" from-port="1" to-layer="936" to-port="1"/>
		<edge from-layer="936" from-port="2" to-layer="937" to-port="0"/>
		<edge from-layer="937" from-port="1" to-layer="939" to-port="0"/>
		<edge from-layer="938" from-port="1" to-layer="939" to-port="1"/>
		<edge from-layer="939" from-port="2" to-layer="941" to-port="0"/>
		<edge from-layer="940" from-port="1" to-layer="941" to-port="1"/>
		<edge from-layer="941" from-port="2" to-layer="942" to-port="0"/>
		<edge from-layer="942" from-port="1" to-layer="944" to-port="0"/>
		<edge from-layer="943" from-port="1" to-layer="944" to-port="1"/>
		<edge from-layer="944" from-port="2" to-layer="946" to-port="0"/>
		<edge from-layer="945" from-port="1" to-layer="946" to-port="1"/>
		<edge from-layer="946" from-port="2" to-layer="947" to-port="0"/>
		<edge from-layer="927" from-port="2" to-layer="947" to-port="1"/>
		<edge from-layer="927" from-port="2" to-layer="948" to-port="0"/>
		<edge from-layer="948" from-port="1" to-layer="950" to-port="0"/>
		<edge from-layer="949" from-port="1" to-layer="950" to-port="1"/>
		<edge from-layer="950" from-port="2" to-layer="952" to-port="0"/>
		<edge from-layer="951" from-port="1" to-layer="952" to-port="1"/>
		<edge from-layer="952" from-port="2" to-layer="953" to-port="0"/>
		<edge from-layer="953" from-port="1" to-layer="955" to-port="0"/>
		<edge from-layer="954" from-port="1" to-layer="955" to-port="1"/>
		<edge from-layer="955" from-port="2" to-layer="957" to-port="0"/>
		<edge from-layer="956" from-port="1" to-layer="957" to-port="1"/>
		<edge from-layer="957" from-port="2" to-layer="958" to-port="0"/>
		<edge from-layer="958" from-port="1" to-layer="960" to-port="0"/>
		<edge from-layer="959" from-port="1" to-layer="960" to-port="1"/>
		<edge from-layer="960" from-port="2" to-layer="962" to-port="0"/>
		<edge from-layer="961" from-port="1" to-layer="962" to-port="1"/>
		<edge from-layer="962" from-port="2" to-layer="963" to-port="0"/>
		<edge from-layer="963" from-port="1" to-layer="965" to-port="0"/>
		<edge from-layer="964" from-port="1" to-layer="965" to-port="1"/>
		<edge from-layer="965" from-port="2" to-layer="967" to-port="0"/>
		<edge from-layer="966" from-port="1" to-layer="967" to-port="1"/>
		<edge from-layer="967" from-port="2" to-layer="968" to-port="0"/>
		<edge from-layer="948" from-port="1" to-layer="968" to-port="1"/>
		<edge from-layer="968" from-port="2" to-layer="970" to-port="0"/>
		<edge from-layer="969" from-port="1" to-layer="970" to-port="1"/>
		<edge from-layer="970" from-port="2" to-layer="972" to-port="0"/>
		<edge from-layer="971" from-port="1" to-layer="972" to-port="1"/>
		<edge from-layer="972" from-port="2" to-layer="973" to-port="0"/>
		<edge from-layer="973" from-port="1" to-layer="975" to-port="0"/>
		<edge from-layer="974" from-port="1" to-layer="975" to-port="1"/>
		<edge from-layer="975" from-port="2" to-layer="977" to-port="0"/>
		<edge from-layer="976" from-port="1" to-layer="977" to-port="1"/>
		<edge from-layer="977" from-port="2" to-layer="978" to-port="0"/>
		<edge from-layer="978" from-port="1" to-layer="980" to-port="0"/>
		<edge from-layer="979" from-port="1" to-layer="980" to-port="1"/>
		<edge from-layer="980" from-port="2" to-layer="982" to-port="0"/>
		<edge from-layer="981" from-port="1" to-layer="982" to-port="1"/>
		<edge from-layer="982" from-port="2" to-layer="983" to-port="0"/>
		<edge from-layer="983" from-port="1" to-layer="985" to-port="0"/>
		<edge from-layer="984" from-port="1" to-layer="985" to-port="1"/>
		<edge from-layer="985" from-port="2" to-layer="987" to-port="0"/>
		<edge from-layer="986" from-port="1" to-layer="987" to-port="1"/>
		<edge from-layer="987" from-port="2" to-layer="988" to-port="0"/>
		<edge from-layer="968" from-port="2" to-layer="988" to-port="1"/>
		<edge from-layer="968" from-port="2" to-layer="989" to-port="0"/>
		<edge from-layer="989" from-port="1" to-layer="991" to-port="0"/>
		<edge from-layer="990" from-port="1" to-layer="991" to-port="1"/>
		<edge from-layer="991" from-port="2" to-layer="993" to-port="0"/>
		<edge from-layer="992" from-port="1" to-layer="993" to-port="1"/>
		<edge from-layer="993" from-port="2" to-layer="994" to-port="0"/>
		<edge from-layer="994" from-port="1" to-layer="996" to-port="0"/>
		<edge from-layer="995" from-port="1" to-layer="996" to-port="1"/>
		<edge from-layer="996" from-port="2" to-layer="998" to-port="0"/>
		<edge from-layer="997" from-port="1" to-layer="998" to-port="1"/>
		<edge from-layer="998" from-port="2" to-layer="999" to-port="0"/>
		<edge from-layer="999" from-port="1" to-layer="1001" to-port="0"/>
		<edge from-layer="1000" from-port="1" to-layer="1001" to-port="1"/>
		<edge from-layer="1001" from-port="2" to-layer="1003" to-port="0"/>
		<edge from-layer="1002" from-port="1" to-layer="1003" to-port="1"/>
		<edge from-layer="1003" from-port="2" to-layer="1004" to-port="0"/>
		<edge from-layer="1004" from-port="1" to-layer="1006" to-port="0"/>
		<edge from-layer="1005" from-port="1" to-layer="1006" to-port="1"/>
		<edge from-layer="1006" from-port="2" to-layer="1008" to-port="0"/>
		<edge from-layer="1007" from-port="1" to-layer="1008" to-port="1"/>
		<edge from-layer="1008" from-port="2" to-layer="1009" to-port="0"/>
		<edge from-layer="989" from-port="1" to-layer="1009" to-port="1"/>
		<edge from-layer="1009" from-port="2" to-layer="1011" to-port="0"/>
		<edge from-layer="1010" from-port="1" to-layer="1011" to-port="1"/>
		<edge from-layer="1011" from-port="2" to-layer="1013" to-port="0"/>
		<edge from-layer="1012" from-port="1" to-layer="1013" to-port="1"/>
		<edge from-layer="1013" from-port="2" to-layer="1014" to-port="0"/>
		<edge from-layer="1014" from-port="1" to-layer="1016" to-port="0"/>
		<edge from-layer="1015" from-port="1" to-layer="1016" to-port="1"/>
		<edge from-layer="1016" from-port="2" to-layer="1018" to-port="0"/>
		<edge from-layer="1017" from-port="1" to-layer="1018" to-port="1"/>
		<edge from-layer="1018" from-port="2" to-layer="1019" to-port="0"/>
		<edge from-layer="1019" from-port="1" to-layer="1021" to-port="0"/>
		<edge from-layer="1020" from-port="1" to-layer="1021" to-port="1"/>
		<edge from-layer="1021" from-port="2" to-layer="1023" to-port="0"/>
		<edge from-layer="1022" from-port="1" to-layer="1023" to-port="1"/>
		<edge from-layer="1023" from-port="2" to-layer="1024" to-port="0"/>
		<edge from-layer="1024" from-port="1" to-layer="1026" to-port="0"/>
		<edge from-layer="1025" from-port="1" to-layer="1026" to-port="1"/>
		<edge from-layer="1026" from-port="2" to-layer="1028" to-port="0"/>
		<edge from-layer="1027" from-port="1" to-layer="1028" to-port="1"/>
		<edge from-layer="1028" from-port="2" to-layer="1029" to-port="0"/>
		<edge from-layer="1009" from-port="2" to-layer="1029" to-port="1"/>
		<edge from-layer="1029" from-port="2" to-layer="1031" to-port="0"/>
		<edge from-layer="1030" from-port="1" to-layer="1031" to-port="1"/>
		<edge from-layer="1031" from-port="2" to-layer="1033" to-port="0"/>
		<edge from-layer="1032" from-port="1" to-layer="1033" to-port="1"/>
		<edge from-layer="1033" from-port="2" to-layer="1034" to-port="0"/>
		<edge from-layer="1034" from-port="1" to-layer="1036" to-port="0"/>
		<edge from-layer="1035" from-port="1" to-layer="1036" to-port="1"/>
		<edge from-layer="1036" from-port="2" to-layer="1038" to-port="0"/>
		<edge from-layer="1037" from-port="1" to-layer="1038" to-port="1"/>
		<edge from-layer="1038" from-port="2" to-layer="1039" to-port="0"/>
		<edge from-layer="1039" from-port="1" to-layer="1041" to-port="0"/>
		<edge from-layer="1040" from-port="1" to-layer="1041" to-port="1"/>
		<edge from-layer="1041" from-port="2" to-layer="1043" to-port="0"/>
		<edge from-layer="1042" from-port="1" to-layer="1043" to-port="1"/>
		<edge from-layer="1043" from-port="2" to-layer="1044" to-port="0"/>
		<edge from-layer="1044" from-port="1" to-layer="1046" to-port="0"/>
		<edge from-layer="1045" from-port="1" to-layer="1046" to-port="1"/>
		<edge from-layer="1046" from-port="2" to-layer="1048" to-port="0"/>
		<edge from-layer="1047" from-port="1" to-layer="1048" to-port="1"/>
		<edge from-layer="1048" from-port="2" to-layer="1049" to-port="0"/>
		<edge from-layer="1029" from-port="2" to-layer="1049" to-port="1"/>
		<edge from-layer="1049" from-port="2" to-layer="1050" to-port="0"/>
		<edge from-layer="1050" from-port="1" to-layer="1054" to-port="0"/>
		<edge from-layer="1051" from-port="1" to-layer="1054" to-port="1"/>
		<edge from-layer="1052" from-port="1" to-layer="1054" to-port="2"/>
		<edge from-layer="1053" from-port="1" to-layer="1054" to-port="3"/>
		<edge from-layer="1054" from-port="4" to-layer="1056" to-port="0"/>
		<edge from-layer="1055" from-port="1" to-layer="1056" to-port="1"/>
		<edge from-layer="1056" from-port="2" to-layer="1060" to-port="0"/>
		<edge from-layer="1057" from-port="1" to-layer="1060" to-port="1"/>
		<edge from-layer="1058" from-port="1" to-layer="1060" to-port="2"/>
		<edge from-layer="1059" from-port="1" to-layer="1060" to-port="3"/>
		<edge from-layer="1056" from-port="2" to-layer="1061" to-port="0"/>
		<edge from-layer="1049" from-port="2" to-layer="1062" to-port="0"/>
		<edge from-layer="1062" from-port="1" to-layer="1063" to-port="0"/>
		<edge from-layer="1061" from-port="1" to-layer="1064" to-port="0"/>
		<edge from-layer="1063" from-port="1" to-layer="1064" to-port="1"/>
		<edge from-layer="1064" from-port="2" to-layer="1066" to-port="0"/>
		<edge from-layer="1065" from-port="1" to-layer="1066" to-port="1"/>
		<edge from-layer="1066" from-port="2" to-layer="1070" to-port="0"/>
		<edge from-layer="1067" from-port="1" to-layer="1070" to-port="1"/>
		<edge from-layer="1068" from-port="1" to-layer="1070" to-port="2"/>
		<edge from-layer="1069" from-port="1" to-layer="1070" to-port="3"/>
		<edge from-layer="1049" from-port="2" to-layer="1072" to-port="0"/>
		<edge from-layer="1060" from-port="4" to-layer="1072" to-port="1"/>
		<edge from-layer="1070" from-port="4" to-layer="1072" to-port="2"/>
		<edge from-layer="1071" from-port="1" to-layer="1072" to-port="3"/>
		<edge from-layer="988" from-port="2" to-layer="1073" to-port="0"/>
		<edge from-layer="1072" from-port="4" to-layer="1073" to-port="1"/>
		<edge from-layer="1073" from-port="2" to-layer="1075" to-port="0"/>
		<edge from-layer="1074" from-port="1" to-layer="1075" to-port="1"/>
		<edge from-layer="1075" from-port="2" to-layer="1077" to-port="0"/>
		<edge from-layer="1076" from-port="1" to-layer="1077" to-port="1"/>
		<edge from-layer="1077" from-port="2" to-layer="1078" to-port="0"/>
		<edge from-layer="1078" from-port="1" to-layer="1080" to-port="0"/>
		<edge from-layer="1079" from-port="1" to-layer="1080" to-port="1"/>
		<edge from-layer="1080" from-port="2" to-layer="1082" to-port="0"/>
		<edge from-layer="1081" from-port="1" to-layer="1082" to-port="1"/>
		<edge from-layer="1082" from-port="2" to-layer="1083" to-port="0"/>
		<edge from-layer="1083" from-port="1" to-layer="1085" to-port="0"/>
		<edge from-layer="1084" from-port="1" to-layer="1085" to-port="1"/>
		<edge from-layer="1085" from-port="2" to-layer="1087" to-port="0"/>
		<edge from-layer="1086" from-port="1" to-layer="1087" to-port="1"/>
		<edge from-layer="1087" from-port="2" to-layer="1088" to-port="0"/>
		<edge from-layer="1088" from-port="1" to-layer="1090" to-port="0"/>
		<edge from-layer="1089" from-port="1" to-layer="1090" to-port="1"/>
		<edge from-layer="1090" from-port="2" to-layer="1092" to-port="0"/>
		<edge from-layer="1091" from-port="1" to-layer="1092" to-port="1"/>
		<edge from-layer="1092" from-port="2" to-layer="1093" to-port="0"/>
		<edge from-layer="1073" from-port="2" to-layer="1093" to-port="1"/>
		<edge from-layer="1093" from-port="2" to-layer="1094" to-port="0"/>
		<edge from-layer="1094" from-port="1" to-layer="1098" to-port="0"/>
		<edge from-layer="1095" from-port="1" to-layer="1098" to-port="1"/>
		<edge from-layer="1096" from-port="1" to-layer="1098" to-port="2"/>
		<edge from-layer="1097" from-port="1" to-layer="1098" to-port="3"/>
		<edge from-layer="1098" from-port="4" to-layer="1100" to-port="0"/>
		<edge from-layer="1099" from-port="1" to-layer="1100" to-port="1"/>
		<edge from-layer="1100" from-port="2" to-layer="1104" to-port="0"/>
		<edge from-layer="1101" from-port="1" to-layer="1104" to-port="1"/>
		<edge from-layer="1102" from-port="1" to-layer="1104" to-port="2"/>
		<edge from-layer="1103" from-port="1" to-layer="1104" to-port="3"/>
		<edge from-layer="1100" from-port="2" to-layer="1105" to-port="0"/>
		<edge from-layer="1093" from-port="2" to-layer="1106" to-port="0"/>
		<edge from-layer="1106" from-port="1" to-layer="1107" to-port="0"/>
		<edge from-layer="1105" from-port="1" to-layer="1108" to-port="0"/>
		<edge from-layer="1107" from-port="1" to-layer="1108" to-port="1"/>
		<edge from-layer="1108" from-port="2" to-layer="1110" to-port="0"/>
		<edge from-layer="1109" from-port="1" to-layer="1110" to-port="1"/>
		<edge from-layer="1110" from-port="2" to-layer="1114" to-port="0"/>
		<edge from-layer="1111" from-port="1" to-layer="1114" to-port="1"/>
		<edge from-layer="1112" from-port="1" to-layer="1114" to-port="2"/>
		<edge from-layer="1113" from-port="1" to-layer="1114" to-port="3"/>
		<edge from-layer="1093" from-port="2" to-layer="1116" to-port="0"/>
		<edge from-layer="1104" from-port="4" to-layer="1116" to-port="1"/>
		<edge from-layer="1114" from-port="4" to-layer="1116" to-port="2"/>
		<edge from-layer="1115" from-port="1" to-layer="1116" to-port="3"/>
		<edge from-layer="947" from-port="2" to-layer="1117" to-port="0"/>
		<edge from-layer="1116" from-port="4" to-layer="1117" to-port="1"/>
		<edge from-layer="1117" from-port="2" to-layer="1119" to-port="0"/>
		<edge from-layer="1118" from-port="1" to-layer="1119" to-port="1"/>
		<edge from-layer="1119" from-port="2" to-layer="1121" to-port="0"/>
		<edge from-layer="1120" from-port="1" to-layer="1121" to-port="1"/>
		<edge from-layer="1121" from-port="2" to-layer="1122" to-port="0"/>
		<edge from-layer="1122" from-port="1" to-layer="1124" to-port="0"/>
		<edge from-layer="1123" from-port="1" to-layer="1124" to-port="1"/>
		<edge from-layer="1124" from-port="2" to-layer="1126" to-port="0"/>
		<edge from-layer="1125" from-port="1" to-layer="1126" to-port="1"/>
		<edge from-layer="1126" from-port="2" to-layer="1127" to-port="0"/>
		<edge from-layer="1127" from-port="1" to-layer="1129" to-port="0"/>
		<edge from-layer="1128" from-port="1" to-layer="1129" to-port="1"/>
		<edge from-layer="1129" from-port="2" to-layer="1131" to-port="0"/>
		<edge from-layer="1130" from-port="1" to-layer="1131" to-port="1"/>
		<edge from-layer="1131" from-port="2" to-layer="1132" to-port="0"/>
		<edge from-layer="1132" from-port="1" to-layer="1134" to-port="0"/>
		<edge from-layer="1133" from-port="1" to-layer="1134" to-port="1"/>
		<edge from-layer="1134" from-port="2" to-layer="1136" to-port="0"/>
		<edge from-layer="1135" from-port="1" to-layer="1136" to-port="1"/>
		<edge from-layer="1136" from-port="2" to-layer="1137" to-port="0"/>
		<edge from-layer="1117" from-port="2" to-layer="1137" to-port="1"/>
		<edge from-layer="1137" from-port="2" to-layer="1138" to-port="0"/>
		<edge from-layer="1138" from-port="1" to-layer="1142" to-port="0"/>
		<edge from-layer="1139" from-port="1" to-layer="1142" to-port="1"/>
		<edge from-layer="1140" from-port="1" to-layer="1142" to-port="2"/>
		<edge from-layer="1141" from-port="1" to-layer="1142" to-port="3"/>
		<edge from-layer="1142" from-port="4" to-layer="1144" to-port="0"/>
		<edge from-layer="1143" from-port="1" to-layer="1144" to-port="1"/>
		<edge from-layer="1144" from-port="2" to-layer="1148" to-port="0"/>
		<edge from-layer="1145" from-port="1" to-layer="1148" to-port="1"/>
		<edge from-layer="1146" from-port="1" to-layer="1148" to-port="2"/>
		<edge from-layer="1147" from-port="1" to-layer="1148" to-port="3"/>
		<edge from-layer="1144" from-port="2" to-layer="1149" to-port="0"/>
		<edge from-layer="1137" from-port="2" to-layer="1150" to-port="0"/>
		<edge from-layer="1150" from-port="1" to-layer="1151" to-port="0"/>
		<edge from-layer="1149" from-port="1" to-layer="1152" to-port="0"/>
		<edge from-layer="1151" from-port="1" to-layer="1152" to-port="1"/>
		<edge from-layer="1152" from-port="2" to-layer="1154" to-port="0"/>
		<edge from-layer="1153" from-port="1" to-layer="1154" to-port="1"/>
		<edge from-layer="1154" from-port="2" to-layer="1158" to-port="0"/>
		<edge from-layer="1155" from-port="1" to-layer="1158" to-port="1"/>
		<edge from-layer="1156" from-port="1" to-layer="1158" to-port="2"/>
		<edge from-layer="1157" from-port="1" to-layer="1158" to-port="3"/>
		<edge from-layer="1137" from-port="2" to-layer="1160" to-port="0"/>
		<edge from-layer="1148" from-port="4" to-layer="1160" to-port="1"/>
		<edge from-layer="1158" from-port="4" to-layer="1160" to-port="2"/>
		<edge from-layer="1159" from-port="1" to-layer="1160" to-port="3"/>
		<edge from-layer="906" from-port="2" to-layer="1161" to-port="0"/>
		<edge from-layer="1160" from-port="4" to-layer="1161" to-port="1"/>
		<edge from-layer="1161" from-port="2" to-layer="1163" to-port="0"/>
		<edge from-layer="1162" from-port="1" to-layer="1163" to-port="1"/>
		<edge from-layer="1163" from-port="2" to-layer="1165" to-port="0"/>
		<edge from-layer="1164" from-port="1" to-layer="1165" to-port="1"/>
		<edge from-layer="1165" from-port="2" to-layer="1166" to-port="0"/>
		<edge from-layer="1166" from-port="1" to-layer="1168" to-port="0"/>
		<edge from-layer="1167" from-port="1" to-layer="1168" to-port="1"/>
		<edge from-layer="1168" from-port="2" to-layer="1170" to-port="0"/>
		<edge from-layer="1169" from-port="1" to-layer="1170" to-port="1"/>
		<edge from-layer="1170" from-port="2" to-layer="1171" to-port="0"/>
		<edge from-layer="1171" from-port="1" to-layer="1173" to-port="0"/>
		<edge from-layer="1172" from-port="1" to-layer="1173" to-port="1"/>
		<edge from-layer="1173" from-port="2" to-layer="1175" to-port="0"/>
		<edge from-layer="1174" from-port="1" to-layer="1175" to-port="1"/>
		<edge from-layer="1175" from-port="2" to-layer="1176" to-port="0"/>
		<edge from-layer="1176" from-port="1" to-layer="1178" to-port="0"/>
		<edge from-layer="1177" from-port="1" to-layer="1178" to-port="1"/>
		<edge from-layer="1178" from-port="2" to-layer="1180" to-port="0"/>
		<edge from-layer="1179" from-port="1" to-layer="1180" to-port="1"/>
		<edge from-layer="1180" from-port="2" to-layer="1181" to-port="0"/>
		<edge from-layer="1161" from-port="2" to-layer="1181" to-port="1"/>
		<edge from-layer="1181" from-port="2" to-layer="1182" to-port="0"/>
		<edge from-layer="1182" from-port="1" to-layer="1186" to-port="0"/>
		<edge from-layer="1183" from-port="1" to-layer="1186" to-port="1"/>
		<edge from-layer="1184" from-port="1" to-layer="1186" to-port="2"/>
		<edge from-layer="1185" from-port="1" to-layer="1186" to-port="3"/>
		<edge from-layer="1186" from-port="4" to-layer="1188" to-port="0"/>
		<edge from-layer="1187" from-port="1" to-layer="1188" to-port="1"/>
		<edge from-layer="1188" from-port="2" to-layer="1192" to-port="0"/>
		<edge from-layer="1189" from-port="1" to-layer="1192" to-port="1"/>
		<edge from-layer="1190" from-port="1" to-layer="1192" to-port="2"/>
		<edge from-layer="1191" from-port="1" to-layer="1192" to-port="3"/>
		<edge from-layer="1188" from-port="2" to-layer="1193" to-port="0"/>
		<edge from-layer="1181" from-port="2" to-layer="1194" to-port="0"/>
		<edge from-layer="1194" from-port="1" to-layer="1195" to-port="0"/>
		<edge from-layer="1193" from-port="1" to-layer="1196" to-port="0"/>
		<edge from-layer="1195" from-port="1" to-layer="1196" to-port="1"/>
		<edge from-layer="1196" from-port="2" to-layer="1198" to-port="0"/>
		<edge from-layer="1197" from-port="1" to-layer="1198" to-port="1"/>
		<edge from-layer="1198" from-port="2" to-layer="1202" to-port="0"/>
		<edge from-layer="1199" from-port="1" to-layer="1202" to-port="1"/>
		<edge from-layer="1200" from-port="1" to-layer="1202" to-port="2"/>
		<edge from-layer="1201" from-port="1" to-layer="1202" to-port="3"/>
		<edge from-layer="1181" from-port="2" to-layer="1204" to-port="0"/>
		<edge from-layer="1192" from-port="4" to-layer="1204" to-port="1"/>
		<edge from-layer="1202" from-port="4" to-layer="1204" to-port="2"/>
		<edge from-layer="1203" from-port="1" to-layer="1204" to-port="3"/>
		<edge from-layer="865" from-port="2" to-layer="1205" to-port="0"/>
		<edge from-layer="1204" from-port="4" to-layer="1205" to-port="1"/>
		<edge from-layer="1205" from-port="2" to-layer="1207" to-port="0"/>
		<edge from-layer="1206" from-port="1" to-layer="1207" to-port="1"/>
		<edge from-layer="1207" from-port="2" to-layer="1209" to-port="0"/>
		<edge from-layer="1208" from-port="1" to-layer="1209" to-port="1"/>
		<edge from-layer="1209" from-port="2" to-layer="1210" to-port="0"/>
		<edge from-layer="1210" from-port="1" to-layer="1212" to-port="0"/>
		<edge from-layer="1211" from-port="1" to-layer="1212" to-port="1"/>
		<edge from-layer="1212" from-port="2" to-layer="1214" to-port="0"/>
		<edge from-layer="1213" from-port="1" to-layer="1214" to-port="1"/>
		<edge from-layer="1214" from-port="2" to-layer="1215" to-port="0"/>
		<edge from-layer="1215" from-port="1" to-layer="1217" to-port="0"/>
		<edge from-layer="1216" from-port="1" to-layer="1217" to-port="1"/>
		<edge from-layer="1217" from-port="2" to-layer="1219" to-port="0"/>
		<edge from-layer="1218" from-port="1" to-layer="1219" to-port="1"/>
		<edge from-layer="1219" from-port="2" to-layer="1220" to-port="0"/>
		<edge from-layer="1220" from-port="1" to-layer="1222" to-port="0"/>
		<edge from-layer="1221" from-port="1" to-layer="1222" to-port="1"/>
		<edge from-layer="1222" from-port="2" to-layer="1224" to-port="0"/>
		<edge from-layer="1223" from-port="1" to-layer="1224" to-port="1"/>
		<edge from-layer="1224" from-port="2" to-layer="1225" to-port="0"/>
		<edge from-layer="1205" from-port="2" to-layer="1225" to-port="1"/>
		<edge from-layer="1225" from-port="2" to-layer="1227" to-port="0"/>
		<edge from-layer="1226" from-port="1" to-layer="1227" to-port="1"/>
		<edge from-layer="1227" from-port="2" to-layer="1229" to-port="0"/>
		<edge from-layer="1228" from-port="1" to-layer="1229" to-port="1"/>
		<edge from-layer="1229" from-port="2" to-layer="1230" to-port="0"/>
		<edge from-layer="1230" from-port="1" to-layer="1232" to-port="0"/>
		<edge from-layer="1231" from-port="1" to-layer="1232" to-port="1"/>
		<edge from-layer="1232" from-port="2" to-layer="1234" to-port="0"/>
		<edge from-layer="1233" from-port="1" to-layer="1234" to-port="1"/>
		<edge from-layer="1234" from-port="2" to-layer="1236" to-port="0"/>
		<edge from-layer="1235" from-port="1" to-layer="1236" to-port="1"/>
		<edge from-layer="1236" from-port="2" to-layer="1237" to-port="0"/>
	</edges>
	<meta_data>
		<MO_version value="2021.2.0-1877-176bdf51370-releases/2021/2"/>
		<cli_parameters>
			<caffe_parser_path value="DIR"/>
			<data_type value="FP16"/>
			<disable_nhwc_to_nchw value="False"/>
			<disable_omitting_optional value="False"/>
			<disable_resnet_optimization value="False"/>
			<disable_weights_compression value="False"/>
			<enable_concat_optimization value="False"/>
			<enable_flattening_nested_params value="False"/>
			<enable_ssd_gluoncv value="False"/>
			<extensions value="DIR"/>
			<framework value="onnx"/>
			<freeze_placeholder_with_value value="{}"/>
			<generate_deprecated_IR_V7 value="False"/>
			<input value="input_1:0"/>
			<input_model value="DIR/elg_onnx_tf2onnx_bilinear.onnx"/>
			<input_model_is_text value="False"/>
			<input_shape value="[2,108,180,1]"/>
			<k value="DIR/CustomLayersMapping.xml"/>
			<keep_shape_ops value="True"/>
			<legacy_mxnet_model value="False"/>
			<log_level value="ERROR"/>
			<mean_scale_values value="{}"/>
			<mean_values value="()"/>
			<model_name value="elg_onnx_tf2onnx_bilinear_ir"/>
			<output_dir value="DIR"/>
			<placeholder_data_types value="{}"/>
			<placeholder_shapes value="{'input_1:0': array([  2, 108, 180,   1])}"/>
			<progress value="True"/>
			<remove_memory value="False"/>
			<remove_output_softmax value="False"/>
			<reverse_input_channels value="False"/>
			<save_params_from_nd value="False"/>
			<scale_values value="()"/>
			<silent value="False"/>
			<static_shape value="False"/>
			<stream_output value="True"/>
			<unset unset_cli_parameters="batch, counts, disable_fusing, disable_gfusing, finegrain_fusing, input_checkpoint, input_meta_graph, input_proto, input_symbol, mean_file, mean_file_offsets, move_to_preprocess, nd_prefix_name, output, pretrained_model_name, saved_model_dir, saved_model_tags, scale, tensorboard_logdir, tensorflow_custom_layer_libraries, tensorflow_custom_operations_config_update, tensorflow_object_detection_api_pipeline_config, tensorflow_use_custom_operations_config, transformations_config"/>
		</cli_parameters>
	</meta_data>
</net>
